experiments/mdmm/meek-outstanding-sambar/checkpoints/epoch=2-step=23229.ckpt (torch, 634138 bytes, 15 tensors)

model._encoder.weight f4 [128, 14]
0	0x3efc7a80	0.4931221
1	0xbd1601fd	-0.03662299
2	0x3de30e04	0.11086658
3	0xbf49ed1f	-0.78877443
4	0x3f8e9317	1.1138638
5	0xbee1d29b	-0.44105992
6	0x3f389198	0.7209716
7	0xbe825ef6	-0.25463074
8	0xbec0eade	-0.3767919
9	0xc0267b09	-2.6012595
10	0xbf1ac631	-0.60458666
11	0xc01c3892	-2.4409528
12	0xbf609f8d	-0.87743455
13	0x3e619a1a	0.22031441
14	0xbf0601e4	-0.52346635
15	0x3f7aece3	0.9801771
16	0x3ea7a20d	0.32740822
17	0xbf9b9175	-1.2153765
18	0x3f614586	0.8799671
19	0xbf75f1b0	-0.9607191
20	0xbfa36837	-1.2766179
21	0x3e88249e	0.26590437
22	0xbf1b36f6	-0.6063074
23	0xbf02d3ea	-0.51104605
24	0xbe71b12d	-0.23602743
25	0xbf155e2d	-0.58346826
26	0x3e35bbc9	0.17747416
27	0xbe93120f	-0.28724715
28	0xbe96a650	-0.2942376
29	0x3fedfcbf	1.8592757
30	0x3daeee18	0.085415065
31	0x3f1a7f3a	0.6035038
32	0x3f9623e5	1.1729704
33	0xbf2617ad	-0.64879876
34	0x3f2755f1	0.6536551
35	0x3f0b1901	0.5433503
36	0xbf120da4	-0.57052064
37	0x3f879722	1.0592997
38	0xbf210786	-0.62902105
39	0x3efbab37	0.49154064
40	0x3f91b8df	1.1384543
41	0xbe4d0080	-0.20019722
42	0x3d260a42	0.040537126
43	0x3fa2bea8	1.2714434
44	0xbec3ffd1	-0.3828111
45	0x3e6a0049	0.22851671
46	0x3e5c8bcd	0.21537705
47	0xbf9d33c2	-1.228142
48	0x3f70afdc	0.9401834
49	0xbf044d26	-0.5168022
50	0x3da4b17a	0.080416635
51	0xbfb70fd6	-1.4301708
52	0x3e5f7dd1	0.21825339
53	0xbf8c956b	-1.0983099
54	0x3eb182bc	0.34670055
55	0x3eb3c3ad	0.35110226
56	0x3c960826	0.018314432
57	0x3dae5a72	0.08513345
58	0xbe7fcf7e	-0.24981496
59	0xbee8d507	-0.45475027
60	0xbf63e2b7	-0.89017814
61	0x3e2a6663	0.1664062
62	0xbeb08bd4	-0.3448168
63	0x3e684fbe	0.22686669
64	0x3d03c1ee	0.032167368
65	0x3f6b01e4	0.9179976
66	0xbf62e418	-0.88629293
67	0x3f57c41b	0.8428361
68	0x3e337f45	0.17529018
69	0xbedcd0df	-0.43128106
70	0x3f38e486	0.722237
71	0x3fd34fee	1.6508768
72	0x3c80cdaf	0.015723078
73	0x3e4f3efa	0.20238867
74	0xbf18cf84	-0.59691644
75	0xbf11ea06	-0.56997716
76	0xbf870ea8	-1.0551348
77	0x3ef89aac	0.48555505
78	0xbd90bb2c	-0.0706695
79	0x3ddc6a02	0.10762407
80	0x3ece83cb	0.40334925
81	0x3fdcfbe9	1.7264377
82	0x3e5f35fb	0.21797936
83	0xbe8608be	-0.26178545
84	0xbf156e60	-0.58371544
85	0xbeac9bd2	-0.3371263
86	0x3e603caf	0.21898149
87	0x3fa91042	1.3208086
88	0x3e0b3131	0.13592984
89	0x3fa81d33	1.3133911
90	0x3f059b90	0.52190495
91	0x3e49ada3	0.19695143
92	0x3dc08fa2	0.09402396
93	0xbe6a18e8	-0.22861063
94	0x3e15c357	0.14625297
95	0x3e47292c	0.194493
96	0xbf3ef9ba	-0.745998
97	0x3e14ca10	0.14530206
98	0x3cb98914	0.022648372
99	0xbf11c34d	-0.5693863
100	0xbebe5da6	-0.37180823
101	0xbefc5aee	-0.49288124
102	0xbfc090b4	-1.504416
103	0x3f439ac8	0.7640805
104	0xbf296813	-0.6617443
105	0x3d15fdb5	0.036618907
106	0xbf185aee	-0.5951375
107	0x3dd40c35	0.10353891
108	0xbf83b141	-1.0288469
109	0x3e086da5	0.13323076
110	0x3dffd4f1	0.12491787
111	0x3d00e29b	0.031466108
112	0xbee68c7b	-0.45029053
113	0xbfef0fc1	-1.8676683
114	0xbdd66058	-0.10467595
115	0x3f374941	0.7159615
116	0xbec8c87b	-0.39215454
117	0x3fb23d4e	1.3924959
118	0xc0390413	-2.8908737
119	0xbf8c9c42	-1.0985186
120	0x3caae7cb	0.02086248
121	0xbfbe96d7	-1.4889783
122	0x3ec67d6d	0.38767567
123	0xbd0bcf1f	-0.034133073
124	0xbe7205e0	-0.23635054
125	0x3edc2f4d	0.43004838
126	0xbe1c52c4	-0.15265948
127	0xbc8c2674	-0.01710818
128	0x3ce50e18	0.027960822
129	0x3db5d341	0.08878184
130	0xbf053e97	-0.5204863
131	0x3f937315	1.1519495
132	0xc038668c	-2.881259
133	0x3ea43a95	0.32075945
134	0x3eb284a2	0.34866816
135	0xbf7a0ea9	-0.9767862
136	0xc027257e	-2.6116633
137	0x3f11dcce	0.56977546
138	0xbf813fc3	-1.0097584
139	0xbc93d72c	-0.018046938
140	0xbe2bed13	-0.16789655
141	0xbe3e9d4c	-0.18614691
142	0x3e8cb17c	0.2747916
143	0xbefd1fdc	-0.4943837
144	0xbfc4b528	-1.5367785
145	0xbf781fa8	-0.96923304
146	0x3ccac629	0.024752693
147	0xbead1dea	-0.33811885
148	0xbd03dc41	-0.032192472
149	0x3e914649	0.28373936
150	0x3f858f0c	1.043428
151	0x3f9173d5	1.1363474
152	0x3f616a1a	0.88052523
153	0xbe939d5b	-0.2883099
154	0x3f27b1e3	0.6550581
155	0xbf0d93a3	-0.553034
156	0xbcc86d36	-0.024466138
157	0x3e362dfb	0.17790978
158	0xbf901df1	-1.1259137
159	0x3ef99453	0.48745975
160	0xbf2a557d	-0.66536695
161	0xbe973955	-0.29535928
162	0x3edcb217	0.43104622
163	0xbea1a08e	-0.31567806
164	0x3e87490a	0.26422912
165	0x3f9c0522	1.2189066
166	0x3e38e137	0.18054663
167	0x3e821bf4	0.25411952
168	0xbeb33645	-0.35002342
169	0x3eb9eff7	0.3631589
170	0x3df27145	0.11838011
171	0x3f5e975e	0.8694972
172	0x3f1dd420	0.616518
173	0x3f401c80	0.7504349
174	0x3fbb1bfb	1.4617914
175	0xbe82ea62	-0.25569445
176	0xbdb504d5	-0.08838812
177	0x3e908ce5	0.28232494
178	0xbf981e23	-1.1884197
179	0x3f0ca8c9	0.54945046
180	0xbf46eeed	-0.7770832
181	0xbed7b91b	-0.42133412
182	0x3ea301bc	0.3183726
183	0x3f3e306e	0.7429265
184	0x3e8da20c	0.27662694
185	0x3f59fe46	0.85153615
186	0xbfbf4825	-1.4943892
187	0xbdbae418	-0.09125537
188	0xbff3d2b7	-1.904868
189	0x3e2d2ad7	0.16910873
190	0x3da72569	0.08161432
191	0x4012d26e	2.2940936
192	0x3e0249ec	0.12723511
193	0x3fe5107e	1.7895658
194	0x3f2fcbc2	0.68670285
195	0x3e2d50d0	0.16925359
196	0x3e56b980	0.209692
197	0x3fe44c6a	1.783582
198	0x3ac9de92	0.0015401414
199	0x3f1f7881	0.6229325
200	0x3f83bd13	1.0292076
201	0xc00151a8	-2.020609
202	0x3fbbf2a2	1.4683421
203	0xbefaa490	-0.48953676
204	0xbebb1fbd	-0.36547652
205	0xbf8f30fb	-1.1186823
206	0x3f46e733	0.7769653
207	0xbfd8b0be	-1.6928937
208	0x3e849b94	0.25899947
209	0xbf06df2f	-0.526843
210	0xbdc91f03	-0.09820368
211	0xbee21678	-0.44157767
212	0xbd298c17	-0.041393366
213	0x3f52e611	0.82382303
214	0x3f2d5b72	0.6771766
215	0x3fb9ee8a	1.4525921
216	0xc0060342	-2.0939488
217	0xbee2cec8	-0.44298387
218	0xbf0dc8f9	-0.55384785
219	0xbfff5a48	-1.9949427
220	0x3e5e4a4c	0.2170803
221	0xbef55776	-0.4791829
222	0xbfe18e50	-1.7621555
223	0x3ccb4fa9	0.024818258
224	0x3ef896f2	0.48552662
225	0xbebce390	-0.36892366
226	0xbf572e0a	-0.84054625
227	0x3e3ba057	0.18322884
228	0xbf4dc980	-0.8038559
229	0x3f088a84	0.5333636
230	0xbf42a063	-0.7602598
231	0x3ee8a705	0.45439926
232	0x3f12951f	0.5725879
233	0xbf41919b	-0.756128
234	0xbf7bc12b	-0.98341626
235	0x3ece2c1c	0.40268028
236	0xbcfb0360	-0.030641258
237	0x3f08bfbb	0.5341756
238	0xbdbb59e3	-0.09148004
239	0x3ebd4f22	0.36974436
240	0xbef97dcf	-0.48728797
241	0x3f8addc6	1.084893
242	0x3f82e4eb	1.022611
243	0x3f14df45	0.5815318
244	0xbea9aa34	-0.33137667
245	0x3e410c8c	0.18852443
246	0x3f06e21b	0.5268876
247	0xbed3c938	-0.41364455
248	0xbf368aa3	-0.7130529
249	0xbf5d5dff	-0.8647155
250	0x3c817972	0.01580498
251	0xbde01532	-0.10941543
252	0xbf05aae4	-0.52213883
253	0x3fa7fd40	1.3124161
254	0x3f1777b7	0.59167045
255	0x3f7e9297	0.9944243

model._decoder.weight f4 [8, 128]
0	0x3ea829bc	0.3284434
1	0x3e02a8d2	0.12759712
2	0xbe8ef91f	-0.2792444
3	0xbf075834	-0.5286896
4	0xbf2eecde	-0.6833018
5	0x3f46b27f	0.77616113
6	0xbe817106	-0.25281543
7	0xbe27da4e	-0.1639187
8	0xbe92f8b7	-0.2870538
9	0x3e819d61	0.25315383
10	0x3d68acfe	0.056805603
11	0xbdc64d83	-0.09682753
12	0xbe4de272	-0.20105913
13	0xbdcc6e54	-0.09981981
14	0xbe3d04bd	-0.18458839
15	0xbf134e49	-0.5754133
16	0xbe39969b	-0.18123858
17	0x3f2891eb	0.65847653
18	0x3ce02aea	0.027364213
19	0xbe1fecdd	-0.156177
20	0x3e6e1037	0.23248373
21	0x3f9ad1c4	1.2095265
22	0xbea6e7f0	-0.3259883
23	0xbeac1e1a	-0.33616716
24	0xbeaf1c43	-0.3420125
25	0x3d3d3d3d	0.04620098
26	0x3f082904	0.53187585
27	0x3e825ffd	0.25463858
28	0xbefc54bd	-0.492834
29	0x3f51b2e5	0.81913596
30	0xbe856f0c	-0.26061285
31	0xbeccb554	-0.39982092
32	0x3ed79bdd	0.42111102
33	0xbced9b93	-0.029004848
34	0xbeba3a67	-0.36372682
35	0xbe9181a2	-0.28419214
36	0xbe85f0d1	-0.2616029
37	0x3f0fd0c3	0.5617792
38	0xbe25f7cd	-0.1620781
39	0xbbc5e6c9	-0.0060394746
40	0xbe31803f	-0.17334078
41	0x3f2d6bd1	0.6774264
42	0x3e416f60	0.18890142
43	0x3ed5313c	0.41639125
44	0xbe19f6f8	-0.15035617
45	0xbebca436	-0.36844033
46	0x3e445198	0.1917175
47	0x3f027f9b	0.5097596
48	0xbe030100	-0.1279335
49	0x3ec60bf6	0.38681
50	0x3e8044da	0.2505253
51	0x3dc71416	0.09720628
52	0xbda76b2d	-0.08174739
53	0x3eec4468	0.4614594
54	0x3e35b718	0.17745626
55	0xbe63b551	-0.22237135
56	0xbd119659	-0.035543773
57	0x3d9dfe6d	0.077145435
58	0x3f1200af	0.57032293
59	0xbe780fa7	-0.24224721
60	0xbd547db9	-0.05187771
61	0x3cbf79fe	0.0233736
62	0xbe94c8f6	-0.2905957
63	0xbda2ae35	-0.079433836
64	0xbeb5d47d	-0.35513678
65	0xbdcf026c	-0.10107884
66	0x3d2da2f8	0.042391747
67	0x3c605ca9	0.013693967
68	0xbee0e1e7	-0.4392235
69	0x3cc4a268	0.024003223
70	0x3f05ace9	0.52216965
71	0xbe1acee9	-0.15117992
72	0xbf07d367	-0.5305695
73	0xbd803f18	-0.06262034
74	0xbe8296a7	-0.25505564
75	0x3d2c98c4	0.042137876
76	0x3ed78adc	0.4209813
77	0xbdd56048	-0.10418755
78	0x3f62dace	0.8861512
79	0xbd1425e8	-0.036168963
80	0xbe85dc30	-0.26144552
81	0xbbb8ce35	-0.005639816
82	0x3e573142	0.21014884
83	0xbec802fd	-0.3906478
84	0xbe40f62b	-0.18843906
85	0xbd7cb79c	-0.06169854
86	0x3e1a3c2e	0.15062019
87	0xbf043885	-0.5164874
88	0xbede040c	-0.43362463
89	0x3f2e2038	0.6801791
90	0xbd6869c1	-0.05674148
91	0x3de108e4	0.10988024
92	0x3c9b5757	0.018962545
93	0xbda0d015	-0.078521885
94	0x3de62e47	0.112392955
95	0xbdcf366d	-0.10117803
96	0xbebc33b9	-0.3675821
97	0x3ed02249	0.40651157
98	0xbe1e37c7	-0.15450965
99	0xbe3a921b	-0.18219797
100	0xbc640441	-0.01391703
101	0x3ee340b9	0.44385317
102	0x3e56a198	0.2096008
103	0x3e765447	0.24055587
104	0xbdb1f182	-0.08688642
105	0xbe61d79e	-0.22054908
106	0x3e4cc6c2	0.19997695
107	0xbf16c366	-0.58891904
108	0x3ecea141	0.40357402
109	0xbe1da37b	-0.15394394
110	0xbe395373	-0.1809824
111	0xbe85c9bc	-0.26130474
112	0xbdcbb958	-0.09947461
113	0xbe3cad52	-0.18425491
114	0x3eb8d628	0.36100888
115	0xbe040119	-0.12891044
116	0xbe235990	-0.15952134
117	0xbf1f8da6	-0.62325513
118	0xbded087d	-0.11573885
119	0xc004a583	-2.072602
120	0xbeb9f783	-0.3632165
121	0xbe0188bd	-0.12649818
122	0x3f19966e	0.5999516
123	0xbf098123	-0.5371267
124	0xbe79a68f	-0.24379943
125	0xbdb352f1	-0.08756054
126	0xbe23b552	-0.15987137
127	0xbe8685b9	-0.26273897
128	0xbca1e2bc	-0.019761436
129	0x3df88fdd	0.12136815
130	0x3e868fc8	0.2628157
131	0xbec70b1a	-0.38875657
132	0xbc97a3d1	-0.018510731
133	0xbeffe4f3	-0.49979362
134	0x3cb98be1	0.022649707
135	0x3e9786ac	0.29594934
136	0x3ebbc5d4	0.36674368
137	0xbd8d27be	-0.06892346
138	0x3d82b186	0.06381516
139	0x3cce8883	0.025211578
140	0x3d0a6ee6	0.033797167
141	0xbe60a635	-0.21938403
142	0x3eb087f0	0.34478712
143	0x3e81ce4c	0.25352705
144	0x3e9126d2	0.2834993
145	0xbf196d1d	-0.5993212
146	0xbe4a823f	-0.19776247
147	0x3e8428f8	0.25812507
148	0x3de1f0a2	0.11032225
149	0xbf9689b1	-1.176077
150	0x3df683bf	0.12036847
151	0x3dbca37b	0.09210869
152	0x3e902a45	0.2815725
153	0xbe35c794	-0.17751914
154	0xbecbd655	-0.3981196
155	0xbe0beaa5	-0.13663729
156	0x3f0d9be2	0.55315983
157	0xbf43f3c7	-0.7654385
158	0x3e9dd7ca	0.30828696
159	0x3eba91b4	0.36439288
160	0xbed375c8	-0.41300797
161	0xbdc9abc6	-0.09847216
162	0x3ec4ad45	0.38413444
163	0xbe82b509	-0.25528744
164	0xbd0c54b5	-0.03426047
165	0xbea35c1b	-0.31906208
166	0x3e442cac	0.19157666
167	0xbe10f867	-0.14157258
168	0x3e4955bf	0.19661616
169	0xbf0f24dd	-0.55915624
170	0x3c6df1fb	0.014523025
171	0xbe767f7f	-0.24072073
172	0x3e2dabfb	0.16960137
173	0x3ebaf983	0.36518487
174	0x3d995bd4	0.07488218
175	0xbe53fe54	-0.20702487
176	0x3e89fd86	0.26951236
177	0xbe957a4f	-0.29194877
178	0xbd4b5883	-0.04964496
179	0xbdf99b1c	-0.12187788
180	0x3e195b08	0.14976132
181	0xbca2057b	-0.019778004
182	0xbe93fce4	-0.28903878
183	0x3e189e3f	0.14904116
184	0xbd3b49f4	-0.045724824
185	0x3a421d87	0.00074049126
186	0xbc0197ea	-0.007909754
187	0x3d854d78	0.065089166
188	0x3d9bcaca	0.07607038
189	0xbd870443	-0.0659261
190	0xbf139c31	-0.57660204
191	0xbe65d754	-0.22445422
192	0x3d97629e	0.073918566
193	0x3d1f0806	0.03882601
194	0x3e2232a1	0.15839626
195	0x3e5011fd	0.20319362
196	0x3e8865c3	0.26640138
197	0x3e5ca4b3	0.21547203
198	0xbefbcfa6	-0.4918186
199	0x3e89546d	0.26822224
200	0x3f203e54	0.62595105
201	0x3d362cfa	0.044476487
202	0x3d9abae5	0.075551786
203	0xbeab896e	-0.33503288
204	0x3cf9aec8	0.03047885
205	0x3e579d02	0.21055987
206	0xbf572c43	-0.84051913
207	0x3de25238	0.11050838
208	0x3ec64e3e	0.3873157
209	0xbdfbd05c	-0.12295601
210	0x3d3c0093	0.045898985
211	0x3e6ffa50	0.2343533
212	0x3e0672ea	0.13129774
213	0x3e4d3754	0.20040637
214	0x3dac6e7d	0.084195115
215	0x3e6531da	0.22382298
216	0x3ec38f3f	0.38195226
217	0xbec85ff4	-0.39135706
218	0x3e3844c8	0.17994988
219	0xbe78b1a5	-0.24286516
220	0x3f15cce1	0.58515745
221	0xbc6544db	-0.013993467
222	0xbcaab31c	-0.02083736
223	0xbcbece36	-0.023291688
224	0x3e7af5f6	0.24507889
225	0x3b1ed61c	0.0024236506
226	0x3e4d7ad1	0.20066382
227	0x3e274dee	0.16338322
228	0x3be858fa	0.007090685
229	0xbec06f0a	-0.37584716
230	0xbed8069b	-0.4219254
231	0xbde7b23e	-0.11313294
232	0xbe8cae19	-0.27476576
233	0x3ea9638f	0.3308377
234	0xbe20bf9a	-0.1569809
235	0x3e739279	0.23786344
236	0xbea8b683	-0.32951745
237	0x3db83f33	0.08996429
238	0x3e2af5b7	0.16695295
239	0x3e10201e	0.14074752
240	0xbd768859	-0.060188625
241	0xbe349eed	-0.1763875
242	0xbebd0dce	-0.36924595
243	0x3c47b9ae	0.012190266
244	0xbda560aa	-0.08075078
245	0x3e9d07fe	0.3067016
246	0x3ebdfa67	0.37105104
247	0x3f001840	0.50037
248	0x3e65609d	0.22400136
249	0x3dd1d8c7	0.10246425
250	0x3f2875e8	0.6580491
251	0x3e4a54d0	0.19758916
252	0x3deb1472	0.11478509
253	0x3e78fa6a	0.24314275
254	0x3e40d411	0.18830897
255	0x3d85adb3	0.06527271

model._layers.0.weight f4 [128, 128]
0	0x3e35a08d	0.17737027
1	0x3d898874	0.067154795
2	0xbe8317de	-0.25604147
3	0xbdbe18ee	-0.09282099
4	0x3d0af5de	0.033925883
5	0xbda8b171	-0.08236969
6	0xbe246a33	-0.16056137
7	0x3d68d097	0.05683955
8	0xbe0fe39a	-0.14051667
9	0xbe0d3f50	-0.13793683
10	0x3d524fb8	0.051345557
11	0x3e27c8d3	0.16385202
12	0x3d1ef17c	0.038804516
13	0x3b5aefda	0.0033407123
14	0xbd55e822	-0.052223332
15	0x3c8c0899	0.017093943
16	0x3ccb0496	0.02478246
17	0xbccda093	-0.025100982
18	0xbe8a2681	-0.269825
19	0x3e2db6e1	0.16964294
20	0x3d869054	0.06570497
21	0x3db5e69f	0.08881878
22	0x3ec0e6be	0.37676042
23	0xbea66748	-0.32500672
24	0x3e231d2f	0.15929101
25	0xbd58e7a0	-0.05295527
26	0xbe3eab85	-0.18620117
27	0xbbdc0b94	-0.0067152474
28	0x3db996af	0.09061944
29	0x3deb4db2	0.114894286
30	0xbd2c3322	-0.04204095
31	0xbe1501d7	-0.14551483
32	0x3e9e1947	0.3087866
33	0xbec18dc5	-0.37803474
34	0x3d8b495f	0.06801104
35	0xbf0bdaa7	-0.5463051
36	0xbd859c37	-0.06523936
37	0x3e12c625	0.14333399
38	0x3dff6fa5	0.124724664
39	0xbd5f1808	-0.054466277
40	0x3e1df360	0.15424871
41	0xbd225ccb	-0.039639276
42	0x3c3a3991	0.011366264
43	0x3d2414b0	0.04005879
44	0xbe134555	-0.14381917
45	0xbb0fac96	-0.0021922938
46	0xbda62f3f	-0.0811448
47	0x3cc7d707	0.024394525
48	0x3d7c934f	0.061663922
49	0x3df05347	0.11734634
50	0xbd1c2e58	-0.038130134
51	0xbc158eea	-0.009128312
52	0x3e7c6841	0.24649145
53	0x3e36237d	0.17786975
54	0xbe006ca9	-0.1254145
55	0xbd7d1027	-0.061782982
56	0x3d579d28	0.05264011
57	0xbe513baf	-0.20432924
58	0xbda2dbec	-0.07952103
59	0xbce89706	-0.028392326
60	0x3d8bc8e6	0.06825428
61	0x3e39bd65	0.18138655
62	0x3c3824de	0.011239259
63	0x3d577ad7	0.052607384
64	0x3dc676a2	0.09690596
65	0xbe21be0b	-0.15795152
66	0x3e882476	0.26590317
67	0xbddc6dc8	-0.107631266
68	0x3c18db0a	0.009329567
69	0x3e2d26d9	0.1690935
70	0x3e523b0f	0.20530342
71	0xbd574ced	-0.052563597
72	0xbf2ce525	-0.67537147
73	0x3e476c49	0.19474901
74	0xbdbe9367	-0.093054585
75	0xbe43f608	-0.19136822
76	0x3d08bcb9	0.033383105
77	0x3e176577	0.147848
78	0x3eaf68b2	0.34259564
79	0xbe4b0147	-0.19824706
80	0xbe511024	-0.20416313
81	0xbe4f1423	-0.20222525
82	0x3d209837	0.039207663
83	0x3e1cd8a5	0.15317018
84	0xbe612e6c	-0.21990365
85	0x3db4c4ed	0.08826623
86	0xbe1f19c1	-0.15537168
87	0x3d2ef046	0.04270961
88	0xbc12f3fe	-0.008969305
89	0x3e2a1be3	0.166122
90	0x3cfbc8b3	0.03073535
91	0x3d739f98	0.059478372
92	0xbdb2bb96	-0.087271854
93	0x3e0245ba	0.12721911
94	0xbdfc10e1	-0.12307907
95	0x3d54be00	0.05193901
96	0x3e18face	0.14939424
97	0x3ece14a8	0.40250134
98	0xbd9628a7	-0.073319726
99	0x3d907b45	0.07054762
100	0xbe5d471f	-0.21609162
101	0xbca610fb	-0.020271769
102	0x3c9b1dc5	0.018935094
103	0xbd6aa768	-0.057288557
104	0x3e606902	0.21915057
105	0xbe20483f	-0.1565256
106	0x3e42b5d2	0.19014671
107	0x3d5c4762	0.053779013
108	0x3df00060	0.117188215
109	0x3e5b9ee8	0.21447337
110	0x3d902d27	0.07039862
111	0xbd9fd6d1	-0.07804645
112	0x3dd582bb	0.104253255
113	0x3e4b53c2	0.1985617
114	0x3e01fe5b	0.12694685
115	0xbe52218d	-0.20520611
116	0x3d79fcd6	0.06103214
117	0xbe07b9c1	-0.13254453
118	0x3be2763a	0.0069110664
119	0x3dbbe058	0.091736495
120	0xbe2aeb25	-0.16691263
121	0xbd7a762a	-0.061147846
122	0x3e3810b1	0.17975117
123	0xbe484d47	-0.19560729
124	0xbe1b141e	-0.15144393
125	0xbce21f21	-0.027602734
126	0xbe3d7b3e	-0.18504044
127	0xbde28d30	-0.11062086
128	0xbe7af9ab	-0.24509303
129	0x3e1c7cf5	0.15282042
130	0xbc542736	-0.012948802
131	0xbcb6707e	-0.022270437
132	0xbbb84a97	-0.005624126
133	0xbb841908	-0.0040313043
134	0x3d46d5ea	0.048543848
135	0x3d1257d6	0.035728298
136	0xbe37ea86	-0.17960557
137	0x3e8ba4d5	0.27274194
138	0x3e888c7d	0.26669684
139	0xbe818416	-0.25296086
140	0xbe3aa3ac	-0.18226498
141	0xbd34ac5c	-0.044109687
142	0x3e0460f3	0.12927608
143	0x3e01e832	0.12686232
144	0xbd7e9abd	-0.06215929
145	0x3d415b5f	0.04720628
146	0x3e090651	0.13381316
147	0x3e3b3037	0.18280111
148	0xbeac6f8a	-0.33678848
149	0xbd939c27	-0.07207518
150	0x3e207045	0.15667827
151	0x3d9f1f2c	0.077696174
152	0xbc4dbc68	-0.012557127
153	0x3d5acc14	0.05341728
154	0xbd310c0d	-0.043224383
155	0x3d578938	0.052621096
156	0x3e169a80	0.14707375
157	0xbbff16e8	-0.007784713
158	0xbdbd1121	-0.09231783
159	0x3d9a8614	0.075451046
160	0xbd3656d3	-0.044516396
161	0xbaebaf64	-0.0017981348
162	0xbe1c8528	-0.1528517
163	0xbc2b4f0a	-0.010455856
164	0xbe852f5a	-0.2601269
165	0x3decabf7	0.11556237
166	0x3a70fb00	0.00091926754
167	0x3e3a47bb	0.18191426
168	0x3dc50806	0.09620671
169	0xbd85726b	-0.06515964
170	0xbdcc6c59	-0.09981603
171	0x3db457cd	0.08805809
172	0xbe49c9a6	-0.19705829
173	0x3f4aa38c	0.791558
174	0x3e41d2b6	0.18928036
175	0x3df5f659	0.12009878
176	0xbe33bc58	-0.17552316
177	0x3cb5767d	0.022151226
178	0x3e91bf2f	0.28466174
179	0x3d07a195	0.03311308
180	0xbd6c9c51	-0.057766262
181	0xbde065cd	-0.10956917
182	0xbdb5c174	-0.08874789
183	0xbc342975	-0.010996212
184	0xbccfd9d3	-0.025372421
185	0xbca79ab3	-0.020459509
186	0xbc473f29	-0.012161055
187	0xbc821971	-0.015881272
188	0xbef6a4a7	-0.48172495
189	0xbf3d1243	-0.7385599
190	0xbd345f96	-0.04403647
191	0xbeb04ec9	-0.34435108
192	0xbde05fdf	-0.10955786
193	0x3c6f80e5	0.014618133
194	0xbbefee97	-0.0073221433
195	0x3dc5a6d6	0.09650962
196	0xbdc1e0f1	-0.09466732
197	0x3de40c4e	0.111351594
198	0xbda479b8	-0.080310285
199	0x3dae1cb8	0.085015714
200	0xbe85262b	-0.26005682
201	0xbdea5764	-0.1144245
202	0xbe648482	-0.22316173
203	0xbbc78cb3	-0.0060897707
204	0xbe079b6b	-0.13242881
205	0xbe069094	-0.1314109
206	0x3debec52	0.11519684
207	0x3df8e6fb	0.12153431
208	0xbf2ac922	-0.66713154
209	0xbe853e47	-0.26024076
210	0xbe8bd920	-0.2731409
211	0xbd861d43	-0.0654855
212	0xbdabcdf5	-0.083888926
213	0x3d9de101	0.07708932
214	0xbee58e5b	-0.4483517
215	0x3c6e745d	0.01455411
216	0xbee7a44c	-0.45242536
217	0xbdbb7352	-0.09152855
218	0xbec32851	-0.38116696
219	0xbe463161	-0.19354774
220	0xbdd50a93	-0.104024075
221	0x3dc3a24d	0.09552441
222	0x3dfad236	0.12247126
223	0x3d9e6cd2	0.077355996
224	0xbd81c072	-0.06335534
225	0xbd6c321d	-0.05766498
226	0x3e4b9359	0.19880427
227	0x3ddb21d0	0.106998086
228	0xbd697a5f	-0.057001468
229	0xbe245fff	-0.16052245
230	0x3c8de63e	0.017321702
231	0xbd0dc986	-0.034616016
232	0x3d2e5165	0.042558093
233	0x3e21e41d	0.15809675
234	0xbe34c7f6	-0.17654404
235	0xbdef077f	-0.11671352
236	0xbdefb94d	-0.11705265
237	0xbd84fdc2	-0.06493713
238	0xbc00d2d8	-0.007862769
239	0x3d1177b4	0.03551455
240	0xbcc90f7b	-0.024543514
241	0x3d7941c1	0.060853723
242	0xbf637aa2	-0.88859
243	0xbe34d4d8	-0.17659318
244	0x3cbaf3a6	0.022821259
245	0x3dab9e67	0.08379822
246	0xbe6720a9	-0.22571053
247	0xbd39d361	-0.045367602
248	0x3e444fa8	0.19171011
249	0xbcb45f96	-0.022018235
250	0xbdad46ac	-0.08460745
251	0x3d3ac889	0.0456014
252	0xbe6d81a4	-0.23193985
253	0x3da6eb31	0.08150328
254	0x3cf4f56a	0.029902179
255	0x3d9196c7	0.071088366

model._layers.1.weight f4 [128, 128]
0	0x3d3ba6f8	0.04581353
1	0x3e0a548b	0.13508813
2	0x3cd70f8f	0.026252536
3	0xbdd7d5da	-0.10538836
4	0x3e4d6c68	0.20060885
5	0xbe266850	-0.1625073
6	0x3cae5cf6	0.021284562
7	0xbf7e8729	-0.9942499
8	0xbe6e0505	-0.23244102
9	0x3e2434ec	0.16035813
10	0xbde84103	-0.11340525
11	0xbce30174	-0.027710654
12	0x3e39a9fc	0.1813125
13	0x3e337c23	0.17527823
14	0xbd45d67b	-0.048300248
15	0x3e93a7c9	0.28838947
16	0xbd97907e	-0.074006066
17	0x3d5af49b	0.05345593
18	0xbc994f19	-0.018714475
19	0x3e9ead5f	0.30991647
20	0xbc8abe5e	-0.016936477
21	0x3ece1293	0.40248546
22	0x3d681ee5	0.05667009
23	0x3d94daf3	0.07268324
24	0x3b04fa72	0.0020290879
25	0x3da6afdd	0.08139012
26	0xbdb2dd1d	-0.0873358
27	0x3d3f43d1	0.046695534
28	0x3e810791	0.25201085
29	0xbdf19b3f	-0.11797189
30	0xbb215acc	-0.002462077
31	0x3e9d25de	0.30692953
32	0x3dfb9b09	0.1228543
33	0xbe77a2da	-0.24183217
34	0x3ebe3b8b	0.37154803
35	0xbe832704	-0.25615704
36	0x3d99f1d0	0.07516825
37	0x3c802bff	0.015645979
38	0x3d37d21e	0.044878118
39	0x3cb9b9c3	0.022671586
40	0x3c9630d8	0.018333837
41	0x3dc7ef92	0.09762491
42	0xbebefef7	-0.37303898
43	0xbc8b6748	-0.017017022
44	0x3d302e00	0.04301262
45	0xbf2e813d	-0.6816595
46	0xbe2b8a68	-0.16752017
47	0xbd731d6f	-0.059354242
48	0xbd09aa49	-0.033609662
49	0x3dfcaa81	0.123372085
50	0x3ddefa54	0.1088759
51	0xbe7afb8c	-0.2451002
52	0xbe716f9d	-0.23577733
53	0x3da64001	0.081176765
54	0xbee58af7	-0.44832584
55	0x3e0b5aa1	0.13608791
56	0xbdba566a	-0.090985134
57	0x3d8a8269	0.06763155
58	0xbca688dc	-0.020328932
59	0xbe948a1a	-0.29011613
60	0x3de67ab3	0.11253872
61	0x3e940acd	0.2891449
62	0x3db929f8	0.09041208
63	0xbe20f778	-0.15719402
64	0x3d273e66	0.040830992
65	0x3e0f32ed	0.1398427
66	0xbe08da5d	-0.13364549
67	0xbe71c5e2	-0.23610643
68	0x3e209879	0.15683164
69	0x3d0e523c	0.034746394
70	0xbe561123	-0.20904975
71	0xbe5a9a87	-0.2134801
72	0xbe933d6c	-0.287578
73	0xbd61f283	-0.055162918
74	0x3c6d018d	0.014465702
75	0xbc29b4a8	-0.010358013
76	0x3dce07f1	0.100601085
77	0x3d60bbb2	0.0548665
78	0x3f87fca4	1.0623975
79	0x3c152e2c	0.0091052465
80	0xbea67cd9	-0.32517126
81	0xbc25f4ff	-0.010129212
82	0xbe386e3d	-0.18010803
83	0xbda50090	-0.08056748
84	0x3e314921	0.17313053
85	0xbf5ba3bb	-0.8579671
86	0xbd4cc423	-0.049991738
87	0x3e6ffd60	0.23436499
88	0xba925eec	-0.0011167205
89	0xbea9b1d3	-0.33143482
90	0x3ebcd930	0.3688445
91	0x3d1d96ae	0.038473777
92	0xbd7244e3	-0.059147727
93	0xbe0ae973	-0.13565616
94	0x3d01774c	0.03160791
95	0xbe846f8e	-0.2586636
96	0xbd46fe1b	-0.048582178
97	0xbef8bbe1	-0.4858084
98	0xbe3a25a5	-0.18178423
99	0x3e0895e2	0.13338426
100	0x3e7abb81	0.2448559
101	0xbb7f2370	-0.0038931035
102	0xbc9cbb2f	-0.019132225
103	0xbe61a101	-0.22034074
104	0xbdf50f79	-0.11965842
105	0xbea86edb	-0.32897076
106	0x3dfa6b99	0.12227554
107	0x3e898356	0.26858014
108	0xbcb6697e	-0.0222671
109	0xbcbadeb0	-0.022811264
110	0x3c2e93dc	0.01065537
111	0xbe3a2a25	-0.1818014
112	0xbf296dd4	-0.6618321
113	0x3dad429e	0.08459972
114	0xbdafc997	-0.08583372
115	0xbde2179c	-0.110396594
116	0x3c183e89	0.009292253
117	0xbd0f7254	-0.03502114
118	0xbd626a65	-0.055277247
119	0xbe08fa99	-0.13376845
120	0xbda66a45	-0.08125738
121	0x3de630db	0.11239787
122	0xbe360c91	-0.17778231
123	0xbecbc80c	-0.3980106
124	0x3d906bdb	0.07051822
125	0x3e2a8729	0.16653122
126	0xba105274	-0.00055054505
127	0x3d9c0960	0.07618976
128	0xbd93948a	-0.07206066
129	0x3d921290	0.07132447
130	0xbe8f7202	-0.2801667
131	0x3e0967d7	0.13418518
132	0xbc709c6a	-0.0146857295
133	0x3e8425fd	0.25810233
134	0x3ec0c136	0.37647408
135	0xbe1d80b2	-0.15381125
136	0x3d2bbf02	0.041930206
137	0x3e2d29d4	0.16910487
138	0x40081106	2.126039
139	0xbe77e3a4	-0.24207932
140	0x3d3554f4	0.04427047
141	0x3e760aaf	0.24027513
142	0xbd92aec5	-0.07162241
143	0xbea86958	-0.3289287
144	0xbdc87a14	-0.097889096
145	0xbd26a881	-0.04068804
146	0x3e192891	0.14956881
147	0x3d930baf	0.07179963
148	0xbdf9edd2	-0.12203564
149	0x3e24787b	0.16061585
150	0xbe2ac764	-0.16677624
151	0x3acf173f	0.0015799775
152	0x3dd4346d	0.10361562
153	0xbe08d304	-0.13361746
154	0xbe5b5c32	-0.21421888
155	0xbe0cd5a3	-0.13753371
156	0xbdaae684	-0.083447486
157	0xbe16bf00	-0.14721298
158	0x3d7d310a	0.061814345
159	0x3e4b06b8	0.19826782
160	0xbd14c2d3	-0.03631861
161	0x3d9f8de0	0.077907324
162	0xbcc42cce	-0.023947146
163	0x3c7a83ea	0.01529024
164	0xbda23b78	-0.07921499
165	0xbe1a2a71	-0.15055253
166	0xbe1444fd	-0.14479442
167	0xbdc9cd62	-0.09853627
168	0xbe3a1a52	-0.18174103
169	0x3e9a5294	0.30141127
170	0x3d95a08e	0.07306014
171	0x3f108aa6	0.5646156
172	0xc0097397	-2.14768
173	0xbe09733b	-0.13422863
174	0xbe5a837e	-0.21339223
175	0xbdcd2e7a	-0.1001863
176	0xbd9f9469	-0.07791979
177	0x3e7029eb	0.2345349
178	0xbc1b2c4f	-0.009471013
179	0xbdbb02e6	-0.09131412
180	0x3e999b2c	0.300012
181	0x3e0c116e	0.13678524
182	0xbcc87c36	-0.02447329
183	0xbd81b178	-0.063326776
184	0x3ded9b14	0.116018444
185	0x3e022307	0.12708674
186	0x3e17363f	0.14766787
187	0xbcbae7a7	-0.022815539
188	0x3c23d79a	0.010000134
189	0xbd6bb96f	-0.05754989
190	0x3e5124e6	0.20424232
191	0xbea6b744	-0.32561696
192	0xbe09e686	-0.13466844
193	0x3db5ed68	0.08883172
194	0x3e634c7e	0.22197148
195	0xbe214956	-0.15750632
196	0xb9498a2b	-0.00019220325
197	0xbd32a91b	-0.043618303
198	0xbf19bbfe	-0.6005248
199	0x3d6ef167	0.058335688
200	0x3e7785dd	0.24172159
201	0xbd1e0404	-0.03857805
202	0x3cde2ef5	0.027122
203	0x3e04303d	0.12909026
204	0xbecaee8e	-0.39635128
205	0xbe391f5a	-0.18078366
206	0xbfc56d6a	-1.5424016
207	0xbeae449d	-0.34036723
208	0x3df15e6b	0.11785587
209	0xbe289281	-0.16462137
210	0xbcb1abc0	-0.021688342
211	0xbe8ec197	-0.27882072
212	0x3cb3dd39	0.021956073
213	0xbdcc271f	-0.09968399
214	0x3e7f9ffb	0.24963371
215	0x3ed91add	0.42403308
216	0x3e3ef26c	0.18647164
217	0xbcca29f3	-0.024678206
218	0x3d9e6a65	0.07735137
219	0xbe18fda4	-0.14940506
220	0xbc5c62fc	-0.013451334
221	0x3e61e8b9	0.22061433
222	0xbdbb6589	-0.09150226
223	0xbdcdeba3	-0.1005471
224	0xbfe7fa5c	-1.8123279
225	0xbc7bdd1c	-0.015372541
226	0x3d3a576f	0.04549354
227	0xbe29da3b	-0.16587155
228	0xbd85ae9d	-0.065274455
229	0xbe2f8e25	-0.17144068
230	0x3d6adc76	0.057339154
231	0x3e9a30a3	0.30115232
232	0x3e8e7a18	0.27827525
233	0xbe255ecb	-0.16149442
234	0x3e4b4b96	0.19853052
235	0x3cfab294	0.03060273
236	0x3dd3e6ef	0.103467815
237	0x3c164a7d	0.009173033
238	0xbe9dd4d4	-0.30826437
239	0xbcec8a2c	-0.02887448
240	0xbe8be257	-0.2732112
241	0xbe12622f	-0.14295267
242	0xbe152f5c	-0.14568847
243	0x3efd22d3	0.4944063
244	0x3b759ef4	0.0037478777
245	0x3d0fac1e	0.035076253
246	0xbfd908a9	-1.6955768
247	0xbda058b4	-0.07829419
248	0x396cb8be	0.00022575536
249	0x3d8b38dd	0.06797955
250	0xbe86c514	-0.26322234
251	0x3d50ea2d	0.051004577
252	0x3e825d08	0.25461602
253	0xbdfb05a5	-0.12256936
254	0x3d4e51f8	0.05037114
255	0x3da1636b	0.078802906

model._layers.2.weight f4 [128, 128]
0	0x3f83cf1a	1.0297577
1	0xbe2959eb	-0.16538207
2	0x3eca34f3	0.39493522
3	0xbe1691ae	-0.1470401
4	0xbe9b2e0f	-0.30308577
5	0xbea92ffd	-0.33044425
6	0xbdea932e	-0.114538535
7	0xbdb5e058	-0.08880681
8	0x3ead24ed	0.33817235
9	0x3ecfba20	0.4057169
10	0xbe46319b	-0.1935486
11	0x3d7a48aa	0.061104454
12	0xbbdbe48c	-0.0067105945
13	0x3dea04d4	0.11426702
14	0xbc9e0070	-0.019287318
15	0x3c820f7d	0.015876526
16	0x3e8e7df2	0.27830464
17	0x3f102885	0.5631183
18	0x3f6a077a	0.9141766
19	0x3f3f029c	0.74613357
20	0x3db9546f	0.090493076
21	0xbf23cc87	-0.6398396
22	0xbe2c88f9	-0.16849126
23	0x3e2cfb86	0.16892824
24	0x3ec496ce	0.38396305
25	0x3ddacf86	0.10684113
26	0xbd0a7c33	-0.03380985
27	0xbe147463	-0.14497523
28	0xbe9de219	-0.3083656
29	0x3efcbd0e	0.49362987
30	0xbe56c3df	-0.20973156
31	0xbebf6d36	-0.3738801
32	0x3eccb201	0.39979556
33	0xbd881b4b	-0.06645831
34	0xbae63b6a	-0.0017565314
35	0xba0ceb43	-0.0005375633
36	0x3db7037b	0.08936211
37	0xbe7d6266	-0.24744567
38	0x3e8de903	0.27716836
39	0x3eec7b41	0.46187785
40	0xbe65852d	-0.22414084
41	0xbe064351	-0.13111617
42	0x3d8b966e	0.068158016
43	0xbe067c1f	-0.13133286
44	0x3d95eaa8	0.07320148
45	0x3dd498c7	0.103807025
46	0xbd7a8438	-0.06116125
47	0xbeaa68e0	-0.33283138
48	0x3e0a1bf5	0.13487227
49	0xbd0f8b4a	-0.035044946
50	0xbecdabf3	-0.4017025
51	0x3e4a6178	0.19763744
52	0xbc9f7e97	-0.019469542
53	0x3e885976	0.26630753
54	0xbd002be5	-0.03129186
55	0x3e852ca0	0.2601061
56	0xbd987eb8	-0.07446045
57	0xbda50c98	-0.08059043
58	0x3eee8781	0.46587756
59	0x3e8b11eb	0.27162108
60	0x3e8a10fc	0.26966083
61	0x3e001b11	0.12510325
62	0x3db1d6cb	0.08683547
63	0xbea66b22	-0.3250361
64	0xbd32b3c7	-0.04362848
65	0x3e04a361	0.12952949
66	0xbdb34fc6	-0.0875545
67	0x3f098be3	0.53729075
68	0x3e315b8b	0.17320077
69	0xbdf291cf	-0.11844217
70	0xbe8087d2	-0.25103623
71	0x3ea131f5	0.31483427
72	0x3dc87d95	0.09789578
73	0x3e6f412e	0.23364708
74	0x3b1ea1dd	0.0024205365
75	0x3dd1ea15	0.10249726
76	0xbe19e9a9	-0.1503054
77	0xbcd34793	-0.025790965
78	0x3decf857	0.115708046
79	0xbddde654	-0.10834947
80	0xbd978e4a	-0.07400186
81	0xbe691f8e	-0.22765943
82	0x3f48c751	0.7842913
83	0xbd5faadb	-0.0546063
84	0xbe6c2be3	-0.23063616
85	0xbeb0ceb6	-0.34532708
86	0xbe3796c0	-0.179286
87	0x3d00efae	0.031478576
88	0xbe9aca02	-0.30232245
89	0x3b4e1877	0.0031447688
90	0xbdad76ab	-0.084699
91	0xbdf24ae0	-0.118306875
92	0xbe7bc47d	-0.24586673
93	0xbdc0c6ff	-0.094129555
94	0xbd1a1c28	-0.03762451
95	0xbe78581a	-0.24252358
96	0x3e6fbd98	0.23412168
97	0xbd1e1d23	-0.038602006
98	0xbcbbb44d	-0.022913123
99	0xbd70f5be	-0.058828108
100	0xbe37942a	-0.17927614
101	0x3e553773	0.20821933
102	0x3f26cdf1	0.6515799
103	0x3e9e5d8d	0.3093075
104	0x39c17ad8	0.00036903354
105	0xbe869179	-0.26282862
106	0x3e1430f6	0.14471802
107	0xbab40115	-0.0013733233
108	0xbdb22f8d	-0.08700476
109	0xbe2bfd2d	-0.16795798
110	0xbd439879	-0.04775283
111	0x3c80ee28	0.015738562
112	0x3e8c81cd	0.2744278
113	0x3d94b464	0.07260969
114	0x3ecea8f8	0.40363288
115	0xbcc322f0	-0.02382037
116	0x3cdd62b1	0.027024599
117	0xbd748ed5	-0.059706528
118	0x3edbcee3	0.4293128
119	0xbdbb2d78	-0.09139532
120	0xbe831f0a	-0.25609618
121	0x3eb4fdc9	0.35349873
122	0x3eb835e9	0.3597863
123	0xbb9f62f5	-0.0048640915
124	0xbd7a9053	-0.061172795
125	0xbd7ba2c6	-0.06143453
126	0xbd5b8e6c	-0.05360262
127	0xbd9fd115	-0.07803551
128	0xbdb2dc55	-0.08733431
129	0xbe38b60f	-0.180382
130	0x3d4fdcda	0.05074773
131	0xbd8ed3f8	-0.069740236
132	0x3d527882	0.051384456
133	0xbcec3d2c	-0.028837763
134	0x3de2aa96	0.11067693
135	0x3e2459fb	0.1604995
136	0x3d35ebf1	0.044414464
137	0xbe2ff170	-0.17181945
138	0xbe356230	-0.17713237
139	0xbdc58290	-0.096440434
140	0x3ddac2b3	0.10681667
141	0xbe37ccbd	-0.17949195
142	0xbd5abb8e	-0.053401522
143	0xbe6b09f2	-0.22953013
144	0x3c4e1755	0.012578805
145	0x3d6b0ee2	0.05738724
146	0xbd43abcd	-0.047771264
147	0xbb7e2fc9	-0.0038785806
148	0x3cbbe53b	0.022936454
149	0xbe0d41df	-0.13794659
150	0x3d098ae1	0.03357971
151	0xbd21c1b9	-0.03949139
152	0xbe498f2f	-0.19683526
153	0xbdc7d4ec	-0.097574085
154	0xbc7dfb69	-0.015501835
155	0xbdf83432	-0.121193305
156	0xbdb0b5ac	-0.08628401
157	0xbc1f49e2	-0.009722205
158	0x3cadd7d3	0.021221077
159	0x3e139bd1	0.14414908
160	0x3db9e3cd	0.09076653
161	0x3e91a3fd	0.28445426
162	0xbdd5e9bd	-0.10444973
163	0x3e48e0e3	0.19617037
164	0xbe2a52f1	-0.16633202
165	0xbc216dd0	-0.0098528415
166	0x3e18efeb	0.14935271
167	0x3e18b6c9	0.14913477
168	0xbe591b3c	-0.21201795
169	0x3df339f7	0.1187629
170	0xbe32eb03	-0.17472462
171	0xbd558bb2	-0.052135177
172	0xbdefb2f9	-0.11704058
173	0xbe538f22	-0.2066007
174	0xbb46e390	-0.003034804
175	0xbd857560	-0.06516528
176	0x3cccdc18	0.025007293
177	0xbe0c269c	-0.13686603
178	0x3c388712	0.011262672
179	0xbd177f51	-0.036986653
180	0xbdaf1ba2	-0.085501924
181	0xbd9244be	-0.07142018
182	0xbe93098a	-0.28718215
183	0x3e68813a	0.22705546
184	0xbe54aa4f	-0.20768093
185	0xbd7feed5	-0.062483627
186	0x3e35ba24	0.17746788
187	0x3db8e62e	0.09028278
188	0xbd32d6b8	-0.043661803
189	0x3dac74dd	0.084207274
190	0xbd2412fb	-0.040057164
191	0xbe5335af	-0.20625947
192	0x3d694958	0.05695471
193	0x3d035554	0.032063797
194	0xbdb92f63	-0.090422414
195	0xbe191b0d	-0.14951725
196	0x3d0e06c8	0.034674436
197	0xbe2a723d	-0.16645141
198	0xbdf8d5cc	-0.121501535
199	0x3e09d7fb	0.13461296
200	0x3da45a11	0.08024991
201	0xbe1c7ec8	-0.15282738
202	0x3dc25fc0	0.09490919
203	0xbcbf8415	-0.023378411
204	0xbc5d5d64	-0.013511036
205	0xbdb118c2	-0.086473
206	0xbe11917f	-0.14215659
207	0xbdbdf220	-0.09274697
208	0x3d577fe3	0.052612197
209	0x3d03f181	0.032212738
210	0xbdfd98c2	-0.12382652
211	0xbe5650a1	-0.20929195
212	0x3d58218d	0.05276637
213	0xbd7a618f	-0.061128195
214	0xbd0f0da0	-0.034925103
215	0x3c873e78	0.01650928
216	0xbe0f2f4e	-0.13982889
217	0xbe41a157	-0.18909203
218	0xbc6e965d	-0.014562217
219	0x3e3eb609	0.18624128
220	0x3e1fa174	0.15588933
221	0x3d5003a6	0.05078473
222	0x3da6ec72	0.08150567
223	0x3e0b5a3c	0.1360864
224	0xbeb2039c	-0.3476838
225	0xbd837456	-0.06418674
226	0x3e22ae14	0.15886718
227	0xbcc1bc29	-0.023649292
228	0x3e079aeb	0.1324269
229	0xbcf5ee6f	-0.03002092
230	0xbe11c7dc	-0.14236397
231	0xbb18d605	-0.0023320925
232	0xbbfebee7	-0.007774222
233	0x3d894785	0.067030944
234	0x3e662500	0.22475052
235	0x3bfbfed1	0.0076902886
236	0x3e0596f8	0.13045871
237	0xbcf2c0aa	-0.029632885
238	0x3db95424	0.09049252
239	0x3c9fdf7d	0.019515747
240	0x3cfd9515	0.030954877
241	0x3e89bd4e	0.2690224
242	0xbd9a0a91	-0.07521547
243	0xbdd6e0b5	-0.10492078
244	0x3903c6ac	0.00012567145
245	0xbd43c0ba	-0.04779122
246	0x3c487239	0.012234264
247	0xbe8256c0	-0.2545681
248	0xbe96fb25	-0.29488483
249	0xbe3b0dea	-0.18267027
250	0xbe3d3dc3	-0.18480591
251	0x3ccd287a	0.025043715
252	0xbe5b3368	-0.21406329
253	0xbdda7d94	-0.106684834
254	0x3d98ce3f	0.07461213
255	0x3e90420a	0.28175384

exp_avg f4 [128, 14]
0	0x3bbf8af2	0.005845421
1	0x396f608f	0.00022828787
2	0x3d321026	0.04347243
3	0x39da652d	0.00041655582
4	0x36ac55ed	5.1360025e-06
5	0xb6809fab	-3.833285e-06
6	0x3841fc10	4.6249537e-05
7	0x39d36c66	0.0004032582
8	0x39dd3bf8	0.00042197085
9	0x380409c2	3.148034e-05
10	0x3912ff0f	0.00014018662
11	0x3964b572	0.00021811368
12	0x39af1af8	0.00033398694
13	0x3a309cc0	0.0006737225
14	0xbb02336a	-0.001986707
15	0xb9915b0a	-0.00027724385
16	0x3c8f29cd	0.017475987
17	0x39701676	0.00022896551
18	0x345deb17	2.0667754e-07
19	0xb4f743e7	-4.605674e-07
20	0x378654e4	1.6013575e-05
21	0x38b8d9f8	8.8144036e-05
22	0x380fdcc7	3.429947e-05
23	0x344cf477	1.9087916e-07
24	0xb788077f	-1.6215954e-05
25	0x37bd81e9	2.259105e-05
26	0x388c134d	6.679315e-05
27	0x3969ebe8	0.00022308493
28	0xba34a1ae	-0.0006890547
29	0xb6ae8d34	-5.2020423e-06
30	0xbc6b54ef	-0.014363511
31	0x385aff29	5.2212887e-05
32	0x363646c5	2.7161307e-06
33	0x32ee0067	2.770703e-08
34	0xb79e5453	-1.8874334e-05
35	0xb884d736	-6.334337e-05
36	0x388b962a	6.656007e-05
37	0x36aa67ea	5.078492e-06
38	0x386afb04	5.6023724e-05
39	0x373f94eb	1.141916e-05
40	0x37b99f3a	2.2127864e-05
41	0xb99a4703	-0.00029426077
42	0xba6a5792	-0.00089394406
43	0xb88fc282	-6.855001e-05
44	0x3cfcad54	0.030844368
45	0xb93eb79e	-0.00018188215
46	0x34c2d831	3.6292616e-07
47	0x362fc742	2.6193015e-06
48	0x363765ef	2.7328458e-06
49	0x37d84afc	2.5784124e-05
50	0x3767da45	1.3819493e-05
51	0x36cdf3d6	6.1378623e-06
52	0x37759c22	1.46394905e-05
53	0x377bdc20	1.5012018e-05
54	0xb7fe44f7	-3.0311274e-05
55	0x38de1100	0.000105889514
56	0x3a808146	0.0009804151
57	0xb785afe1	-1.5936736e-05
58	0xbc8cbe6f	-0.01718065
59	0x38f56b14	0.00011702455
60	0x364b99d2	3.0338892e-06
61	0x341b14cf	1.444307e-07
62	0xb71e1e02	-9.424521e-06
63	0xb89a2a28	-7.3511444e-05
64	0xb819b4aa	-3.66463e-05
65	0xb6c69c2a	-5.9190397e-06
66	0xb79a1322	-1.836714e-05
67	0xb7cbb268	-2.4282563e-05
68	0xb7174f46	-9.018759e-06
69	0x39080cbb	0.00012974713
70	0x3b8f76a3	0.0043781563
71	0xb99f1c7f	-0.00030348075
72	0x3d5140ac	0.051087067
73	0xb99eedb3	-0.00030313208
74	0xb6c47b9c	-5.855645e-06
75	0x37224561	9.672106e-06
76	0xb78a0fe5	-1.6458283e-05
77	0xb98b5fc2	-0.0002658349
78	0xb9bd2b70	-0.00036081253
79	0xb7b5cbe9	-2.1671834e-05
80	0xb8d49e93	-0.000101384845
81	0xb911b005	-0.0001389385
82	0xb985e6f1	-0.00025539802
83	0xb91059f1	-0.00013766416
84	0x3aebaf3a	0.0017981299
85	0x399a26d8	0.0002940211
86	0xbb365e16	-0.0027827076
87	0xb8f94583	-0.00011886193
88	0x33dc35fe	1.02543694e-07
89	0x3561ea12	8.415965e-07
90	0xb720b2e0	-9.578391e-06
91	0xb885b9b6	-6.3765256e-05
92	0xb697ab28	-4.520076e-06
93	0xb632e82b	-2.6659206e-06
94	0x37da3b55	2.6015254e-05
95	0xb7851a3b	-1.586705e-05
96	0xb5a08155	-1.195857e-06
97	0xb81bc572	-3.7138765e-05
98	0x3bcbd00a	0.0062198685
99	0x38e75836	0.00011031369
100	0xbd8a00ad	-0.0673841
101	0x399b1194	0.00029577
102	0x36249cb4	2.4529118e-06
103	0xb54a3d9e	-7.534053e-07
104	0xb7594149	-1.2949408e-05
105	0xb8851352	-6.345533e-05
106	0xb8792cfb	-5.9408118e-05
107	0x3616811b	2.242689e-06
108	0xb78c7f26	-1.6748509e-05
109	0xb776086d	-1.4664704e-05
110	0x386efe37	5.6980378e-05
111	0x386163e5	5.3737214e-05
112	0x3b2d549e	0.002644814
113	0x361dab0d	2.3494388e-06
114	0xbd0f24c2	-0.034947164
115	0xb7183759	-9.072793e-06
116	0xb592cdc2	-1.0937731e-06
117	0xb5fc0892	-1.8777957e-06
118	0x371020b4	8.590683e-06
119	0x376faf6e	1.42863555e-05
120	0xb83276ed	-4.2549265e-05
121	0xb5a33bda	-1.2161865e-06
122	0xb83d9702	-4.520175e-05
123	0xb6fc4181	-7.517811e-06
124	0xb9007079	-0.0001224893
125	0xb86eba2a	-5.6917e-05
126	0x3b6a435a	0.003574571
127	0xb76c88dd	-1.4098562e-05
128	0x3c5ce4d0	0.0134822875
129	0x358ca75c	1.0479521e-06
130	0xb7147b45	-8.850188e-06
131	0x360bef85	2.0852033e-06
132	0x3798ecb4	1.8230035e-05
133	0x371cc9cc	9.345309e-06
134	0xb7530851	-1.2578516e-05
135	0xb6414e85	-2.8804945e-06
136	0xb7818a51	-1.5442407e-05
137	0xb79613ef	-1.7890676e-05
138	0xb8760c51	-5.866244e-05
139	0x38aa80d0	8.130225e-05
140	0xbc18a0ac	-0.009315651
141	0xb91ee733	-0.00015154183
142	0xbd877677	-0.06614392
143	0xb9df3e12	-0.0004258012
144	0x3595982a	1.1145651e-06
145	0x36973e9c	4.5074394e-06
146	0xb7ead02d	-2.7991913e-05
147	0xb92d3b5b	-0.00016520677
148	0xb983f194	-0.00025166257
149	0xb714eb23	-8.8762345e-06
150	0xb8ef6a1e	-0.00011416174
151	0xb89bff57	-7.438537e-05
152	0xb9c4145d	-0.00037399205
153	0x3829a729	4.044842e-05
154	0x3b35c993	0.0027738556
155	0x389d3799	7.496699e-05
156	0xbc4777b1	-0.012174533
157	0x38dc4f3d	0.00010505177
158	0x35df5586	1.6639685e-06
159	0xb5a00754	-1.1923062e-06
160	0xb76b7559	-1.4034414e-05
161	0xb961b239	-0.00021524065
162	0xb8d9c9ea	-0.00010384976
163	0xb70f613c	-8.546103e-06
164	0xb7a8da98	-2.0128951e-05
165	0xb843a1e7	-4.6642406e-05
166	0x38bb78a7	8.939328e-05
167	0x38ec52c9	0.00011268777
168	0x3b96100c	0.0045795497
169	0x39038e55	0.00012546156
170	0x3bdea408	0.0067944564
171	0x38930cb4	7.0118724e-05
172	0xb4aefa8e	-3.2592328e-07
173	0xb5b9e0a1	-1.384895e-06
174	0xb73ca5f4	-1.1244312e-05
175	0x3657d464	3.2161124e-06
176	0x38f9e311	0.0001191554
177	0xb5abf6b8	-1.2812297e-06
178	0x386ee26b	5.695449e-05
179	0x37404ff3	1.1462706e-05
180	0x388fad30	6.85103e-05
181	0xb9b50c1d	-0.00034532035
182	0x3a125754	0.0005582471
183	0xb818465c	-3.630515e-05
184	0x3c92db50	0.017926842
185	0xb973b1b3	-0.00023240484
186	0xb670f2d9	-3.5904143e-06
187	0x36a0e804	4.7953818e-06
188	0xb689df10	-4.108886e-06
189	0xb978ca09	-0.00023726387
190	0xb9686c5d	-0.00022165613
191	0xb7dc967d	-2.629612e-05
192	0xb8338de6	-4.280908e-05
193	0xb8d02be3	-9.9263874e-05
194	0xb92c81b2	-0.00016451514
195	0xb9246068	-0.00015676173
196	0x3b9b1eec	0.004733911
197	0x3928786a	0.00016066586
198	0x3df667ad	0.12031493
199	0xba09806b	-0.0005245271
200	0xb6a4ab18	-4.907499e-06
201	0x37566bfc	1.2780536e-05
202	0x378044ae	1.529077e-05
203	0x38fedc17	0.00012152659
204	0x394adc55	0.00019346301
205	0x375e2700	1.32413115e-05
206	0x38f3ea4e	0.000116307856
207	0x38d9b7a5	0.00010381573
208	0x383e5b2f	4.538445e-05
209	0x3937a360	0.00017513102
210	0xb94636b0	-0.00018903124
211	0x38cb56e3	9.695978e-05
212	0xbc16faa1	-0.009215028
213	0xb9b00f69	-0.00033580817
214	0xb669caae	-3.483768e-06
215	0x35da07c9	1.6244531e-06
216	0x3886ea8f	6.433308e-05
217	0x395951ad	0.00020725159
218	0x38b01e10	8.3979336e-05
219	0x370f8165	8.553591e-06
220	0x37047e60	7.897237e-06
221	0x38103731	3.4383676e-05
222	0xb8b2172d	-8.492018e-05
223	0x392c374c	0.00016423798
224	0x3bd5d898	0.006526064
225	0x38e61fa4	0.00010973148
226	0x3bc29bee	0.0059389984
227	0x37fbe48c	3.0027957e-05
228	0x361ddba6	2.3522675e-06
229	0x35f9012b	1.8552286e-06
230	0x368e492c	4.240448e-06
231	0x3833a787	4.2832948e-05
232	0x388f4d8b	6.833215e-05
233	0x37516d1d	1.2482776e-05
234	0x37da2dd0	2.6008958e-05
235	0x37d776d6	2.5685335e-05
236	0x3912a9a7	0.00013986845
237	0x389a5f38	7.361028e-05
238	0x39adf575	0.0003318001
239	0x3842e0dc	4.646262e-05
240	0x3c326a6c	0.010889631
241	0xb8e4065a	-0.0001087307
242	0x352db1a5	6.470603e-07
243	0x3535f439	6.7783145e-07
244	0x36a3d439	4.8824845e-06
245	0x367e8a87	3.7929583e-06
246	0x37d444f6	2.5304482e-05
247	0x358cd371	1.049235e-06
248	0x37ce5975	2.459877e-05
249	0x37939722	1.7594142e-05
250	0x36e809bc	6.915272e-06
251	0x38b02ae2	8.4003215e-05
252	0xbb09a564	-0.0021003122
253	0x39086dad	0.00013010828
254	0xbc809fcc	-0.015701197
255	0xb8ce0a24	-9.824734e-05

exp_avg_sq f4 [128, 14]
0	0x3d435427	0.047687676
1	0x3740b5f0	1.1486452e-05
2	0x3f7df8c4	0.9920771
3	0x369a417d	4.5971815e-06
4	0x30b4e617	1.3162119e-09
5	0x3146696e	2.8872722e-09
6	0x36af1efb	5.219013e-06
7	0x3683f195	3.932228e-06
8	0x36992a72	4.5646966e-06
9	0x32d36bf8	2.4612731e-08
10	0x3554e2e0	7.93063e-07
11	0x349c4129	2.9104675e-07
12	0x36949650	4.4282424e-06
13	0x371653b7	8.960188e-06
14	0x3b305bad	0.0026910112
15	0x3668db7d	3.4698453e-06
16	0x3e2caa22	0.16861776
17	0x36950a97	4.441779e-06
18	0x2f5def05	2.018475e-10
19	0x30719964	8.789327e-10
20	0x31a35ac9	4.7542454e-09
21	0x350aaeab	5.166318e-07
22	0x35aed006	1.3024553e-06
23	0x31cca48b	5.955888e-09
24	0x351082f7	5.383476e-07
25	0x338d6d29	6.58568e-08
26	0x35f35a22	1.8131143e-06
27	0x3611ad37	2.1707508e-06
28	0x3cc08eb4	0.023505546
29	0x35568019	7.990762e-07
30	0x402e3393	2.7218978
31	0x3591ac65	1.0853515e-06
32	0x2f442da4	1.7842311e-10
33	0x2ffaad4e	4.5597875e-10
34	0x340a7dac	1.289797e-07
35	0x35972e47	1.1263845e-06
36	0x34b06deb	3.286253e-07
37	0x3107c12e	1.9754895e-09
38	0x351adc10	5.7689704e-07
39	0x324eb56d	1.203203e-08
40	0x34e492cd	4.257512e-07
41	0x35785e7e	9.2524704e-07
42	0x3c06a892	0.008218901
43	0x34b4bd22	3.3665225e-07
44	0x3ef36bb2	0.47543103
45	0x352a2df6	6.3396817e-07
46	0x2ee3f98f	1.03670954e-10
47	0x2ef112d5	1.09627564e-10
48	0x30dabee1	1.5915839e-09
49	0x348a085d	2.5710588e-07
50	0x34691866	2.1708692e-07
51	0x30a957cd	1.2321323e-09
52	0x3415d344	1.3953564e-07
53	0x324b7ced	1.184456e-08
54	0x35a24c3d	1.2092129e-06
55	0x34e931bf	4.3435827e-07
56	0x3a9953cc	0.0011697947
57	0x35f1af00	1.8006831e-06
58	0x3d0a76da	0.033804752
59	0x35fc4df7	1.8798154e-06
60	0x2f36c981	1.6624392e-10
61	0x2fa32dd2	2.9682085e-10
62	0x31722245	3.5235115e-09
63	0x34ba9a0a	3.4757278e-07
64	0x35349c36	6.728254e-07
65	0x3175cc63	3.5768373e-09
66	0x34981a59	2.8331377e-07
67	0x33144141	3.4518283e-08
68	0x35c2f978	1.4526731e-06
69	0x35a85665	1.254212e-06
70	0x3c5e6cfc	0.013575789
71	0x374ef7a8	1.2336219e-05
72	0x3f1a8b13	0.6036846
73	0x3676fefc	3.6805277e-06
74	0x30c5f59a	1.4403441e-09
75	0x3135d971	2.6462568e-09
76	0x32aa0023	1.9790667e-08
77	0x369a4c97	4.598474e-06
78	0x36c16aba	5.764273e-06
79	0x330a2086	3.216021e-08
80	0x354c692f	7.6148984e-07
81	0x34c712fc	3.708045e-07
82	0x3694ba05	4.4323992e-06
83	0x37148240	8.851814e-06
84	0x3b00196d	0.0019546405
85	0x35fdc403	1.8907016e-06
86	0x3e1ec338	0.15504158
87	0x363d897c	2.824322e-06
88	0x2f24a374	1.4973783e-10
89	0x3025daa1	6.033734e-10
90	0x357e036c	9.4627353e-07
91	0x3488bb2d	2.5468162e-07
92	0x35816169	9.639599e-07
93	0x31955b9c	4.3468855e-09
94	0x35024e03	4.8542296e-07
95	0x3338ca8f	4.3025064e-08
96	0x35a28f90	1.2111723e-06
97	0x35a814c6	1.2523021e-06
98	0x3ba3770d	0.004988557
99	0x35d8c323	1.6150046e-06
100	0x3ef2dfb1	0.47436288
101	0x36425f60	2.8963768e-06
102	0x2f3106fd	1.6100539e-10
103	0x302f83b3	6.3851785e-10
104	0x31de475d	6.4691634e-09
105	0x350f70f2	5.343601e-07
106	0x3597bf7a	1.1306104e-06
107	0x31cf50bf	6.0336727e-09
108	0x35021570	4.845997e-07
109	0x337010e0	5.5894702e-08
110	0x363dc5ad	2.8278257e-06
111	0x35d2ab15	1.5696011e-06
112	0x3b4f3f0f	0.003162328
113	0x347b1f93	2.3387683e-07
114	0x3ef51d8c	0.47874105
115	0x3565ccaa	8.5606973e-07
116	0x2e86a20e	6.122401e-11
117	0x2f07c42c	1.2347873e-10
118	0x30eb45ee	1.7118376e-09
119	0x34320985	1.6581005e-07
120	0x347a86f1	2.3332156e-07
121	0x30992e08	1.1145298e-09
122	0x3425dc1f	1.5446902e-07
123	0x323a8540	1.08569225e-08
124	0x358f1402	1.0660153e-06
125	0x344bcd08	1.8980438e-07
126	0x3c87d2c7	0.016579999
127	0x3606df44	2.0097514e-06
128	0x400684cc	2.1018553
129	0x3734dc50	1.0780132e-05
130	0x2fa9e1b1	3.0901284e-10
131	0x2fdb4a38	3.9888604e-10
132	0x334fc338	4.8373494e-08
133	0x366a35ee	3.4900108e-06
134	0x35e08f59	1.673102e-06
135	0x31e605e1	6.6945494e-09
136	0x34898663	2.5616018e-07
137	0x3402998a	1.216305e-07
138	0x367a4ed1	3.729878e-06
139	0x36059308	1.9904128e-06
140	0x3affcd89	0.001951621
141	0x35ee5702	1.7757704e-06
142	0x3dc36c26	0.09542112
143	0x35fa67f8	1.865671e-06
144	0x2f3d438a	1.7213445e-10
145	0x2fac93af	3.1391553e-10
146	0x333b821a	4.3657657e-08
147	0x356c830b	8.8107544e-07
148	0x35acb5ee	1.2867947e-06
149	0x31d89e36	6.304414e-09
150	0x3496b83a	2.807372e-07
151	0x33a1199c	7.501805e-08
152	0x35b6073f	1.3562166e-06
153	0x359fe2ee	1.1912468e-06
154	0x3ba2f712	0.0049733007
155	0x367841ac	3.6993106e-06
156	0x3e3d597c	0.18491167
157	0x3671d735	3.6037065e-06
158	0x2fa3324d	2.9685268e-10
159	0x30a6484a	1.2098635e-09
160	0x31bef86e	5.557971e-09
161	0x3587bd0b	1.0113303e-06
162	0x3601af27	1.932445e-06
163	0x32246a2c	9.570197e-09
164	0x34e99be8	4.351307e-07
165	0x33e71d2e	1.07620835e-07
166	0x35f0f2ee	1.7952095e-06
167	0x36532f15	3.1468855e-06
168	0x3a9c28b1	0.0011913982
169	0x36ae2b27	5.1906277e-06
170	0x3db4ad0e	0.0882207
171	0x371379c2	8.790232e-06
172	0x2f857a36	2.4279395e-10
173	0x30b19b6c	1.2922619e-09
174	0x34060e65	1.2484959e-07
175	0x3534c9c3	6.734883e-07
176	0x361cf8f4	2.3390721e-06
177	0x32221911	9.4353405e-09
178	0x35892735	1.0218706e-06
179	0x33edc48a	1.1071923e-07
180	0x367e0b6b	3.7855596e-06
181	0x36597a16	3.2406583e-06
182	0x3bc63649	0.0060489518
183	0x3647c990	2.9770636e-06
184	0x3d8a6e7a	0.06759353
185	0x35d231d7	1.5660725e-06
186	0x2fd827ac	3.931836e-10
187	0x30596a95	7.90956e-10
188	0x332fa0c7	4.089159e-08
189	0x35504762	7.7589914e-07
190	0x35b67c8e	1.3596307e-06
191	0x31eb9f1a	6.857488e-09
192	0x348448eb	2.463997e-07
193	0x33a88a41	7.848258e-08
194	0x3595bd10	1.115639e-06
195	0x360ef47c	2.1301958e-06
196	0x3dc9f07a	0.098603204
197	0x372460d9	9.797711e-06
198	0x40e10e4a	7.0329943
199	0x3702b3f6	7.790504e-06
200	0x30906f2c	1.0508976e-09
201	0x319a7bd4	4.4960675e-09
202	0x36abc1d0	5.11876e-06
203	0x3638aa99	2.7517438e-06
204	0x368ddd7c	4.2279116e-06
205	0x32c4f797	2.2929994e-08
206	0x36230a19	2.429477e-06
207	0x3450ec8a	1.9457562e-07
208	0x375cb2d1	1.3154656e-05
209	0x371ee8e5	9.471759e-06
210	0x3bd0c779	0.0063714352
211	0x358490a5	9.876863e-07
212	0x3ef25e2e	0.47337478
213	0x361684c3	2.242902e-06
214	0x2f22a1c1	1.4791281e-10
215	0x3000c0b7	4.6839993e-10
216	0x321029b6	8.391387e-09
217	0x3527d17e	6.25172e-07
218	0x34bdaa0e	3.5327724e-07
219	0x30fcf52d	1.8405096e-09
220	0x34a7034e	3.1108578e-07
221	0x32a73182	1.9463872e-08
222	0x36407d8c	2.8683307e-06
223	0x3553d7bc	7.891756e-07
224	0x3a22c4f0	0.00062091555
225	0x35b52d63	1.349876e-06
226	0x3c7da8ba	0.015482122
227	0x361f8fb2	2.3776488e-06
228	0x2f044b54	1.2032092e-10
229	0x2fc07ee0	3.5014747e-10
230	0x318feba6	4.188638e-09
231	0x35281d76	6.262775e-07
232	0x356ad5cc	8.748291e-07
233	0x31931770	4.2809276e-09
234	0x3452cb84	1.9631813e-07
235	0x335edcb1	5.188912e-08
236	0x354b72a1	7.57902e-07
237	0x359ca530	1.1670982e-06
238	0x3ad111c5	0.001595073
239	0x3492df1d	2.7356955e-07
240	0x3d379e59	0.044828746
241	0x34728c10	2.2588961e-07
242	0x2dd545aa	2.4246233e-11
243	0x2d965f12	1.7095245e-11
244	0x3043ea29	7.127335e-10
245	0x33de4e16	1.0351884e-07
246	0x33b1032d	8.2427825e-08
247	0x3007fbad	4.9470367e-10
248	0x32ca042c	2.3517792e-08
249	0x31b91ed0	5.3877116e-09
250	0x342f5ae3	1.633121e-07
251	0x34782a47	2.311218e-07
252	0x3a81fde8	0.0009917589
253	0x34e4f4dd	4.264647e-07
254	0x3d963ded	0.0733603
255	0x3580e4a7	9.60329e-07
