experiments/mdmm/lime-zebu-of-authority/checkpoints/epoch=0-step=7743.ckpt (torch, 634138 bytes, 15 tensors)

model._encoder.weight f4 [128, 14]
00000000: 6637 bf3e bc50 db3e b183 31bc 8dc5 32bf
00000010: 9bc9 87be 6d85 43bf c68f 933f 43a0 c7be
00000020: 0d22 77be 41ce 9cbf b8f2 6b3f 3a39 37bf
00000030: fe82 223f 4bf5 a73d c5f3 9a3e e398 d0bf
00000040: 73d9 81be 4ffd 0dbf ecc9 56bf 993d 373f
00000050: e69e 773e 777f 1c3f 12e3 bc3e 088f d93f
00000060: e39f 82be 9a75 ec3e dafb 0e3e 3741 d83d
00000070: b2b6 b43e d93b cf3e b9e4 cdbd ebbb f1be
00000080: 739c 713f 63c8 45bf 41af b8bf 4f47 06bf
00000090: 68ca 2c3d c1b8 1ebf 71d4 b4bf 021b 14bf
000000a0: ad56 5c3e bef8 6c3e d5b4 84be b4da e4be
000000b0: 5774 8d3e 0c79 713e ba53 a1be 7273 3cbb
000000c0: dfd3 58bd d86d 403e 7d7f bbbd e04e 4c3e
000000d0: e809 b7ba af0c 94be 5b27 abbe e6c0 113e
000000e0: 1c2a 61be 2106 3dbf 3f0f 88bd 8410 a23e
000000f0: 8262 3dbf 2502 a93f 3ae6 b4bf 174b 6cbe
00000100: 8e86 eb3d 39dd 5ebf c04f 4e3f 51f7 6f3e
00000110: 069a cbbf 000b a23e 7f87 e4be a082 dbbe
00000120: 0f1c 103f 3e63 963c b5b3 a3be 74d4 063f
00000130: 8b81 18bf 3f1c a03e 8ef3 c2be 1e68 683d
00000140: 7a47 81bf f877 f0be 6853 04bf f9c8 063e
00000150: 6321 f73e 24bd a13e 5b9d 8b3c 412b 30bd
00000160: 5fb4 d8be b7ad d8be 127a 623e 0ba8 d2be
00000170: 1a0d 9abe 86d8 1cbe 7139 913f b994 7d3e
00000180: 245a 6ebd 70a6 febe 7402 023f 11d3 0a3f
00000190: b741 c9be e931 d23d 0193 2ebf ee80 c6be
000001a0: 9611 f1be 668e fd3e 019f 413e 2c96 f63d
000001b0: fdcb 62bf f871 c43e 476d f8be 1b70 953b
000001c0: fbe3 adbe 9621 77bf 2e41 ba3d 22d3 8c3e
000001d0: e8f9 e53d ef52 a73e 2682 9abf c68e 8f3e
000001e0: e77c 0f3f 5ab4 70bd 7d14 f4bd 1393 1c3f
000001f0: 7158 ac3e 54ca d1be 3844 c13e 0aae a5be
00000200: 60c7 5abe 127c ce3e 3f7f 093f e796 f93e
00000210: bfb5 82bf d395 3dbf f33f 3bbe 4b72 33bf
00000220: 795a 8fbe dfe3 27be 7b27 283f 7eb4 17be
00000230: 236f da3d 8311 16bf cd3a 48be 04b2 a93e
00000240: 1328 153e 7066 a43f ff59 63bf 02eb 023f
00000250: b32a 86be 71a7 a93e 379e babe a10d 193f
00000260: 0480 c9be 6e25 9bbe cd73 033d 7e50 92bf
00000270: ebf0 613a 617f 9ebd 5c38 603f 77ab db3f
00000280: fea2 733f e7ac 81bf e385 9fbf 928c 1bc0
00000290: b2e3 8bbf 0f66 b9bf 7be6 01bf 71db bfbd
000002a0: f40d 8cbe 1fbc a13d ef21 e63e cc61 5b3c
000002b0: 9851 f83d 865a 9a3e 812b f13e 3697 2bbe
000002c0: e1be ddbe fefa febe 43e6 8abf 2fbb 40be
000002d0: 003a afbe 3318 d9be 38e6 463e 2744 57bf
000002e0: c06c e83e 6048 283e baf6 9fbd a9be 343e
000002f0: bc1e 24bf 0414 0abe ccca 15be 3cbc 81bf
00000300: 1a18 e1bd dce4 c4bd cee8 df3e ee2e c9be
00000310: bfe0 88ba f7c3 a0be 852f 043e cabf 773e
00000320: 3098 80be c907 823f 03b5 013f 30b6 35bf
00000330: 5639 0d3f 8189 10bf 7fd3 763f 9a1a c0be
00000340: dde7 9e3d d2f5 3abe d7bb 953e f750 863e
00000350: ffcd bbbe 3d62 673f 8105 763e b3bd 8c3d
00000360: aa8c d03e 2a57 28be 540b 30be 9c5e f9be
00000370: f42b 44be 1a34 a3be 4897 e73e 7c3d f1be
00000380: 7982 dc3e bc93 ba3e ba1a 033c dcb7 11bf
00000390: fe12 153f 58d1 1cbf 064b 1d3f ab30 cebe
000003a0: 0124 3dbf 05ce c3bf f06f a9be f354 1ebf
000003b0: ca13 e63e d104 243f 13db 723e 673a e7be
000003c0: 95a9 7c3b eac3 cfbe a83f 38bf 4168 2e3f
000003d0: b596 543f 6d68 af3e 83d2 b23e a20d 823f
000003e0: 288e c13f cdf4 4a3e 6edc b23f a3d5 90be
000003f0: d8fc b43e eb8e 943e 02d4 e3bd 75af 533f
0.37346953 0.42835033 -0.01083462 -0.6983269 -0.26521 -0.76375467 1.1528251 -0.38989457
-0.24134083 -1.2250444 0.92167234 -0.71571696 0.6348113 0.08201083 0.30264106 -1.6296657
-0.25361213 -0.55464643 -0.8390186 0.71578366 0.24181709 0.61131996 0.3689199 1.6996775
-0.2551261 0.46183473 0.13963261 0.10559314 0.35295635 0.40475348 -0.10053391 -0.47213683
0.9437935 -0.7725889 -1.4428483 -0.5245256 0.042185217 -0.6200066 -1.4127332 -0.5785371
0.21517439 0.23141763 -0.25919214 -0.44698107 0.27627823 0.23581332 -0.3150919 -0.0028755334
-0.05293643 0.18791902 -0.09155176 0.19951963 -0.0013964744 -0.28915927 -0.33428463 0.14233741
-0.2198872 -0.73837477 -0.06643533 0.31653225 -0.73978436 1.320378 -1.413276 -0.2307552
0.11500274 -0.8705631 0.8059044 0.23434187 -1.5906379 0.31649017 -0.44634625 -0.42873096
0.56292814 0.01835787 -0.31973043 0.5266793 -0.59572667 0.3127155 -0.38076442 0.05673992
-1.0099938 -0.4696653 -0.5168977 0.13162602 0.4826766 0.31589615 0.017042806 -0.04301
-0.42325112 -0.42320034 0.22116879 -0.41143832 -0.3008812 -0.15316972 1.1345655 0.24763764
-0.058191434 -0.49736357 0.50784993 0.5422831 -0.3930795 0.10263426 -0.6819306 -0.3877024
-0.4708373 0.49522704 0.18908311 0.12040362 -0.8859251 0.383682 -0.48520872 0.004560483
-0.33962998 -0.96535623 0.09094463 0.27504832 0.112293065 0.3268046 -1.2070968 0.28038615
0.5604996 -0.058765747 -0.1191797 0.6116192 0.33661225 -0.40974677 0.3774736 -0.32359344
-0.21365118 0.40329033 0.5370979 0.48747942 -1.0211715 -0.7405674 -0.18286113 -0.7009627
-0.27998713 -0.1639552 0.6568524 -0.14814946 0.10665729 -0.5862047 -0.1955368 0.33143628
0.14566068 1.2843761 -0.888092 0.51139843 -0.26204452 0.3313556 -0.36448833 0.5978642
-0.3935548 -0.30301994 0.032092858 -1.1430814 0.00086189684 -0.07739139 0.87586 1.7161702
0.9517058 -1.0130891 -1.2462734 -2.4304547 -1.0928862 -1.4484271 -0.5074231 -0.09368027
-0.27354395 0.078972094 0.44947764 0.013390016 0.12124938 0.3014719 0.47103503 -0.16756901
-0.43309692 -0.49800867 -1.085152 -0.18821405 -0.34223938 -0.42401275 0.19423759 -0.8408837
0.4539547 0.16433859 -0.07810731 0.17650856 -0.64109397 -0.13484198 -0.14628142 -1.013557
-0.10990925 -0.09613964 0.43732303 -0.39293617 -0.0010442956 -0.3139951 0.12908752 0.24194255
-0.2511611 1.0158626 0.50666827 -0.7098112 0.5516561 -0.56459814 0.9641647 -0.37520295
0.07759068 -0.18257836 0.29244873 0.26233646 -0.366806 0.90384275 0.24025537 0.0687212
0.40732318 -0.164395 -0.17191821 -0.48704994 -0.19157392 -0.31875688 0.45232606 -0.4711722
0.43068293 0.36440837 0.008001978 -0.5692117 0.58232105 -0.61256933 0.614426 -0.40271506
-0.7388306 -1.5297247 -0.33093214 -0.6184837 0.44936973 0.6406985 0.23716383 -0.45161745
0.0038553227 -0.40579158 -0.7197213 0.6812783 0.8304246 0.34259358 0.34926233 1.016041
1.5121508 0.19819947 1.397352 -0.28287992 0.35349154 0.29015288 -0.11124422 0.826896

model._decoder.weight f4 [8, 128]
00000000: 179d 57bd 0e03 e43e b30a 8dbe 95bb 673e
00000010: 204f 78bd 4626 c03d 18d2 b9be 38cc 8abe
00000020: 2fec 2a3f dd98 453e 2008 1d3f 4cc0 d93e
00000030: 16b9 5cbc 11db 293b 4f13 1b3e 3f5a c8be
00000040: 6e8c 923e e82e c5be f45f d1bd 8662 0a3e
00000050: 2c42 6bbe fc81 223e bf4d aa3d c634 f9bd
00000060: ac2b c23e cee3 2abd f60d 753c 40eb cdbb
00000070: 7169 6ebe febd 43be 40a0 563e 0c3d e13c
00000080: 7102 943e 192d 12be c5bb c4be c387 abbd
00000090: 97c4 c2be 55f8 203e c1af 00bd 7854 dcbe
000000a0: 0d91 8ebe facc d4bd 28dd a23e 2b3b 293e
000000b0: 9ac9 243e 9c46 933e 63d9 54bc cce1 c73e
000000c0: 1df5 88be ed4e 34be a817 31be 8e50 82bd
000000d0: b3bf 2bbe 9fbd 803d 6858 88be e2a7 05bf
000000e0: 6a29 42bc 10d7 67bd 20cc 113d 5e38 ffbd
000000f0: 7717 62be 9459 97be cdbb 163b 296d 90be
00000100: f5a4 c73d 5ae9 82bd 9397 07bf c162 f73c
00000110: 8c00 e9be afc0 d1bc 9b68 93be 6611 92bd
00000120: 3513 8abe a246 203e d7cc ec3d 219c 19bf
00000130: 6830 273d 9a86 e63d 7964 04bd 2203 15bf
00000140: bccf d3bc 9da1 58be 047c b0bd d701 433c
00000150: e525 acbc 0776 bfbe 3d3c 80be 5cce aa3e
00000160: 6e53 353f b1f0 313e d2d2 07be 4158 36be
00000170: 7c0a 863e 46d3 223f 702e 2fbe 648b c13d
00000180: 2725 80be 7af7 d73e f2d9 87bd e1dc 293f
00000190: c409 e7be 5773 b63e 301c c33c b977 e3bd
000001a0: e994 2b3d 3153 d9be be96 74be 25c5 a0be
000001b0: dde9 9b3e 3c6a d63e c642 41bf 0f90 55be
000001c0: dde5 05bc 9b46 023e 7648 49be b1d2 61be
000001d0: f168 bb3d c9d6 9e3e 5534 913c 450c a3be
000001e0: 0042 233e 9845 04bf a2f5 883e 9ea8 1abf
000001f0: 55bc 9c3e 3a47 a13e 2cd1 e7be d5bb 3fbd
00000200: 51c4 05be 854f 4ebe b774 e7bd 0230 813e
00000210: 2a7a ba3d 6e4b 433e 78a1 9f3e b402 13bd
00000220: ba96 03bf 72ac a3bc 750c 5cbb 2079 1abf
00000230: 8418 133e 7314 50bf 747d c83e cdef f33d
00000240: e4ed 0a3e 85f3 fbbe 1b11 8fbe 91e8 b03d
00000250: e48e 95be 5113 9d3e 45d5 69be 0fee cabe
00000260: 9822 4b3c 25cc a53d a6ae b73e 844f 833d
00000270: fc05 95be ad6f f9ba 4c75 5cbe e974 193e
00000280: 1460 c73e 253d 71be d498 bcbd 2c54 35be
00000290: a8b5 adbd b113 f2bc 7d4a b53d 0e55 24bd
000002a0: e670 d8be dbe9 39be 8d5a ed3d 9e0a 9f3d
000002b0: 8d57 073e 13e9 193f 4568 6dbe 5fa9 a33e
000002c0: 8c8f b0be d70b ef3d f890 2d3e 82d6 173e
000002d0: 4044 9fbe e70d 39bd a722 24bf 1b0d 35be
000002e0: 367d 1bbd 0c1d 0e3e b941 583d a8af 2dbe
000002f0: cd04 433e fa8a 2fbc 6391 d63d 6792 9fbe
00000300: 64ee 05bf 176d 61be 5064 a43e 2a42 c93e
00000310: 267a 90be 9e75 aabe a275 85be 0581 2cbe
00000320: d99d 35be ce29 8b3d 6b03 c0bd bdf0 70be
00000330: 3d22 2b3e ff9a d3be 344a de3c d194 43bd
00000340: 8d55 9a3e 3303 f43e c2f9 96be bedc c23d
00000350: 10b1 a5bd 5a1e 18be bb11 50be e148 9ebe
00000360: 4f7c ddbe ff9b 953d 2bc4 b7bd d69e 74be
00000370: 5000 4b3d 51d8 cdbd 7610 f63d 1d14 62bc
00000380: 5ceb 1ebe 73f0 5d3e b849 433c 5f7b 33be
00000390: 33f5 e7bc 6031 993e a2ca 153e 89f3 5dbd
000003a0: ba1b bb3e 77a5 23bf d1bc 6bbe ca1e 8b3d
000003b0: e03b c83c 0f2b a13e f083 a03e 1278 ab3e
000003c0: b740 f9bd b270 903d 60a7 1ebe b44f 7bbc
000003d0: c4df 44be 9edd 38be 555e 483d 245c 8b3e
000003e0: 064d af3e 16bc 233e 64fb 5fbd e98b 003b
000003f0: f9f2 723b b7d3 843e 80d1 0abe 56ef 9fbd
-0.052640047 0.4453358 -0.27547225 0.2263015 -0.060622334 0.093823 -0.362931 -0.27108932
0.6676664 0.19296594 0.6134052 0.42529523 -0.013471862 0.0025917927 0.15144084 -0.39131352
0.28622764 -0.3851235 -0.1022338 0.13514146 -0.22974461 0.15869898 0.0831561 -0.12168269
0.37923944 -0.041721158 0.014956942 -0.0062841475 -0.2328241 -0.19115445 0.20959568 0.02749493
0.28908113 -0.14275016 -0.38424507 -0.08375504 -0.3804061 0.15719731 -0.031417612 -0.43033195
-0.2784504 -0.10390659 0.31809354 0.16526477 0.1609253 0.28764808 -0.012991282 0.39039457
-0.26749507 -0.17608233 -0.1729418 -0.06363021 -0.16772346 0.06286167 -0.2662995 -0.52209294
-0.011850694 -0.056601584 0.03559506 -0.12461923 -0.22079264 -0.2956053 0.0023000122 -0.28208283
0.0974826 -0.063921645 -0.5296566 0.030198457 -0.4550823 -0.025604574 -0.28790745 -0.07132225
-0.2696778 0.15651944 0.115625076 -0.6000386 0.04081765 0.11256142 -0.03232238 -0.58207905
-0.025855891 -0.211554 -0.08617404 0.011902294 -0.021014163 -0.37394735 -0.25045958 0.33360565
0.7083043 0.17376973 -0.13264015 -0.17807104 0.26179874 0.6360363 -0.17107558 0.09450415
-0.25028345 0.42180997 -0.06633367 0.6635266 -0.45124638 0.35634872 0.023817152 -0.1110682
0.04189006 -0.42446283 -0.23885629 -0.3140041 0.3045186 0.41877925 -0.75492513 -0.20855735
-0.008172479 0.12722246 -0.19656548 -0.22053029 0.09150875 0.31023243 0.01772515 -0.31845298
0.15943146 -0.5166869 0.26749903 -0.6041354 0.30612436 0.31499654 -0.45276773 -0.04680999
-0.1306317 -0.20147522 -0.113015585 0.2523194 0.09105332 0.19071743 0.31177878 -0.03589125
-0.51401865 -0.01997969 -0.003357676 -0.6034107 0.1436482 -0.81281203 0.39158213 0.11910973
0.1356731 -0.49209228 -0.27942738 0.086381085 -0.2921058 0.306788 -0.22835262 -0.3963475
0.0123983845 0.08095578 0.35875434 0.06411651 -0.29106128 -0.0019030474 -0.2152912 0.14986004
0.3894049 -0.23558481 -0.09208837 -0.1770789 -0.08481914 -0.029550405 0.08852098 -0.040120177
-0.42273635 -0.18155615 0.11589537 0.07765697 0.13216992 0.6012127 -0.23184307 0.31965157
-0.34484518 0.1167218 0.16949832 0.14827922 -0.31106758 -0.045179274 -0.64115375 -0.1768078
-0.037961207 0.13878268 0.052797053 -0.16961539 0.190448 -0.010714287 0.10476949 -0.31166384
-0.5231688 -0.2201427 0.32107782 0.39308292 -0.28218192 -0.3329286 -0.2606631 -0.16846092
-0.17735995 0.06795083 -0.09375652 -0.23529334 0.1671228 -0.4132919 0.027134992 -0.047749344
0.30143395 0.4765869 -0.29487425 0.095147595 -0.080904126 -0.14855328 -0.20319264 -0.30914977
-0.43258902 0.073051445 -0.08972963 -0.23888716 0.049560845 -0.10051025 0.120148584 -0.013798741
-0.1551947 0.21673755 0.011919431 -0.17527531 -0.028315162 0.29920483 0.1462808 -0.05418733
0.3654459 -0.63924354 -0.23021246 0.06792982 0.024442613 0.31478164 0.3135066 0.33490044
-0.121705465 0.07052745 -0.15493536 -0.015338827 -0.19225985 -0.1805329 0.048918087 0.27218735
0.34238452 0.15989718 -0.054683104 0.0019614643 0.0037071093 0.25942776 -0.1355648 -0.078093216

model._layers.0.weight f4 [128, 128]
00000000: 1d5c 0c3e 3d99 183d cf43 203e 736e b9bd
00000010: c014 143e 3527 3ebe ad39 00bd fe1e 07be
00000020: c8f9 fcbd facf e0bd 4539 b8bd 7206 b6bd
00000030: 311d c53c 5333 e8bd 223d 5e3d 9c53 42bd
00000040: 86f3 603e 59cb eebd 4d16 d03d 0ccd 03be
00000050: 88e5 d93d 84c5 a3bb f00b ed3d 604a 14be
00000060: 6f2f 103e fbca c9bd eaa5 eb3d fdf1 00be
00000070: 5a0b 4cbd 510f 6cbc b98b 943e 49e2 473d
00000080: 2517 6cbd 1b7f 1cbe a774 c3be c846 8d3c
00000090: caeb cc3d 7857 4a3e a2c7 92bd 2611 d1bc
000000a0: 014f 743e 192b dfbd 5cf0 c13d 639a 11bc
000000b0: 8e22 bc3d f1a8 5d3e 8fd7 32be 2f01 9abe
000000c0: 06d7 a6be 57bc eebd 1613 7e3e 6c25 eebc
000000d0: ad60 94bd 67c2 aabc df54 313e 5e37 c4bd
000000e0: 68fa 363e 1b32 003e 5240 043d 76af b6bd
000000f0: b439 afbd dde0 073e 46cd 903d 6904 823e
00000100: 7210 133e c1cd 3fbd a577 9a3b 6aea 0bbe
00000110: cc68 143d 0bfa cf3d 124a 123d 2b99 873d
00000120: 0839 69be 1712 853e 530a 863e 88b3 3ebd
00000130: ad17 933e 1624 f13d 03f6 e0bd e449 f03d
00000140: c69d 3d3f f981 89bd 0a26 813d c90e 82be
00000150: f0e3 443d 9326 9cbe aae3 743c 7277 243d
00000160: c22c 733e 5a47 70be f13c ddbd 5c5a 053d
00000170: 43dc 633e e7b1 8fbd 25d5 efbe e4bd 46bd
00000180: b015 423d ed75 4c3d a4ba db3c 901d ebbd
00000190: 9541 ba3c e04b a83c bf1d c1bc 8be4 4abe
000001a0: 8125 f4bd dec0 2a3d cd12 b9bc ec98 ecbb
000001b0: 4837 953d 2350 3d3e 4742 723b a351 c5bd
000001c0: a58c f9bc 6be1 363e e4b1 873e bc3c fcb9
000001d0: 9652 903e 12a5 2e3d 2662 30be f798 55be
000001e0: 8860 07bd 4cc5 693c b67b 9b3d e9e0 ef3d
000001f0: 58eb 093e bd9c 35be b339 e33d 3855 96bd
00000200: c110 d8bd 9509 6d3e ae1b 843e ed3e 413d
00000210: 087c c9bc e76f 2abe 3729 63bd 8063 d3bc
00000220: a60c ec3d ab15 30be d133 f23d 35c0 143f
00000230: 67c9 e7bd 8ad0 b93d 1f25 773d f948 9a3d
00000240: 6c8b 3d3d 58b5 8b3e 2995 e5bd b61d a3ba
00000250: 3e1a 11bb ac63 55be eecd 123e 7ac2 49be
00000260: 9a8a 2ebe f526 26bd d6d6 3c3e c1d3 2c3e
00000270: 4b24 44be de84 a0be 7c67 9cbe d48e 92be
00000280: aa90 88bc d753 98bc 8d5a e1bc faba e73d
00000290: 0ec7 723e c0c7 723d b983 003d aa97 44bd
000002a0: e4b1 07bd 44ba 183e 9026 13be b1bc 0b3e
000002b0: b59a 593e 72ff 65be 54b2 0ebd fc6f dfbd
000002c0: a9c7 98be d54d b2bc 630f 5f3e 4de5 a93b
000002d0: 2581 ffbd dc20 14bc 82e9 073e 1b3b afbe
000002e0: e6e6 c23e c226 12be 22fd 5dbc 42c5 4dbe
000002f0: f76e 0dbe 0ffd fe3c 4035 30bc 9113 a03b
00000300: e8c6 7cbe 2bf0 d8bd 8ed4 0d3e 48c7 53bd
00000310: c3ae 9ebd 4ae2 843d e9ea d7bd 6ebf 863e
00000320: 85ea 4bbe bdfd d8bd 3bc3 5c3d 14fa 133e
00000330: 7b5f b9be 61a6 6c3c a955 abbd 1ce8 9fbc
00000340: 0c5a fd3d e45d 8dbe f7b5 273e b862 91bd
00000350: 5af5 babd 92ca 153f f442 10be cc1e c3bc
00000360: 6856 d5bb efed f33e 84f1 f63c 5c98 883d
00000370: 3f66 e13d 99b7 3dbd f69d ff3d 89a1 b9bc
00000380: 498f 543e 3eff 2dbd 2932 7fbe 50f8 35bd
00000390: d724 53be 7d54 203e b5a9 493d 3295 f9bd
000003a0: f3fb 143e cbaa 8ebd 4549 0cbe 1082 773c
000003b0: e694 ba3d 2aa0 133e 7851 683d 5d71 a3be
000003c0: 3376 bcbc 0aee 01bc ea9d 03be 775b 113d
000003d0: 574a 3ebe f47e e83d f578 243e d59b 83bd
000003e0: 3ab8 1f3e e23b 39be 8574 cc3c 7102 6d3e
000003f0: 8c37 7d3e fc8d 253b c630 2bbd 4f44 da3c
0.13707013 0.037255514 0.15650867 -0.0905427 0.1446104 -0.18569644 -0.031305004 -0.13195416
-0.123523295 -0.109771684 -0.08995298 -0.08887948 0.024061771 -0.11337914 0.05425752 -0.047443017
0.21967897 -0.11659879 0.101605035 -0.12871188 0.10639483 -0.004997911 0.115745425 -0.14481497
0.14080594 -0.098531686 0.11506255 -0.12592311 -0.049815513 -0.014407949 0.2901285 0.048799787
-0.05763926 -0.15282862 -0.38174936 0.017245665 0.10005911 0.19759929 -0.07166983 -0.025520872
0.23858263 -0.10896892 0.09469673 -0.008886906 0.09186278 0.21646477 -0.17465042 -0.30079028
-0.32585925 -0.11657017 0.24811968 -0.029070579 -0.07245002 -0.020844651 0.17317532 -0.09580873
0.1786896 0.12519114 0.032287903 -0.08920185 -0.08555928 0.13269372 0.07070403 0.2539399
0.14361742 -0.04682708 0.00471397 -0.1366364 0.036232755 0.10155114 0.03571517 0.06621011
-0.22775662 0.25990364 0.26179752 -0.046557933 0.28729 0.11774461 -0.10984423 0.117328435
0.7406887 -0.067142434 0.063060835 -0.25401905 0.04806894 -0.3049818 0.0149468575 0.040152974
0.23747543 -0.23464718 -0.10802639 0.032556877 0.22251992 -0.07016354 -0.46842304 -0.048520938
0.047383964 0.04991715 0.026822396 -0.11480248 0.02273635 0.020543993 -0.023573754 -0.19813745
-0.11921216 0.04168784 -0.022591973 -0.007220378 0.07285935 0.18487601 0.0036965774 -0.096347116
-0.030462572 0.17859428 0.26502907 -0.00048110436 0.28188008 0.042637892 -0.1722494 -0.20859133
-0.033051044 0.014268231 0.07591955 0.1171282 0.13468683 -0.17735572 0.1109499 -0.07340473
-0.105500706 0.23148187 0.25802368 0.04717915 -0.024595276 -0.1664425 -0.055459227 -0.025804281
0.1152585 -0.17195766 0.118262894 0.58105785 -0.11317711 0.09072979 0.060338136 0.0753345
0.04627554 0.27286792 -0.11210091 -0.0012444768 -0.0022140886 -0.20838803 0.14336368 -0.19703093
-0.1704506 -0.040564496 0.18441328 0.16877653 -0.1915447 -0.3135137 -0.30547702 -0.28624594
-0.016670544 -0.018594665 -0.027508998 0.1131496 0.23708746 0.059272528 0.03137562 -0.0479962
-0.033128634 0.14914805 -0.14370179 0.13646199 0.21250422 -0.22460726 -0.034838036 -0.10910031
-0.2983983 -0.021765629 0.21783213 0.0051848055 -0.12475804 -0.009041037 0.1327267 -0.3422478
0.38066787 -0.14272597 -0.013549121 -0.20094779 -0.13811861 0.031126527 -0.010754883 0.004885145
-0.24685252 -0.105926834 0.13850614 -0.05170372 -0.07748177 0.06488474 -0.105428524 0.26317924
-0.19913681 -0.10595272 0.053897124 0.14450866 -0.36205658 0.014443965 -0.08365948 -0.019519858
0.12370691 -0.27610695 0.16378008 -0.07098907 -0.09128828 0.5851222 -0.1408804 -0.023818396
-0.0065105446 0.47642466 0.03014446 0.06669685 0.1100583 -0.04631767 0.124813005 -0.022660034
0.20757784 -0.042479746 -0.24921478 -0.044426262 -0.20619522 0.1565723 0.04923411 -0.1218666
0.14549236 -0.0696617 -0.13699825 0.015106693 0.091104314 0.14416566 0.05671832 -0.31922427
-0.02300558 -0.007930288 -0.12853208 0.03548762 -0.18583046 0.113523394 0.16061766 -0.06426207
0.1559762 -0.1808925 0.024957905 0.23145463 0.2472822 0.0025261631 -0.04179456 0.0266439

model._layers.1.weight f4 [128, 128]
00000000: c1fe c93d b078 cd3d ddf8 49bd f149 e13d
00000010: f327 083e 014f f63c 1824 84be 3ace 00be
00000020: 26e2 80bd 5bee 193d 4399 1fbd 80c3 f43d
00000030: 32aa 423e aaab f9bc b624 073e f69d dc3d
00000040: 7c5b 84bd 5564 fc3d 9fb0 ef3d 32ec 223e
00000050: 0224 013e b5f0 e6bc ea80 19be 3008 f9bd
00000060: 5b56 d9bd c117 203e 0d21 663e 3f00 0cbe
00000070: a769 97be a0c5 053e f87a a6bc 9de7 0cbe
00000080: 851e bcbd 4a79 823d 0557 803b 6540 263e
00000090: b9e6 abbc 0f57 903c c51a ff3d 3954 4cbd
000000a0: b462 5bbd ae1b f73d 50e9 0abd 1bf3 2c3e
000000b0: 1de4 d1bc e933 8abd e35e b83d 4e7c 47be
000000c0: abb0 35be cecb 013e c472 a53d 65c6 e6bd
000000d0: 6101 43be 0e48 483e dcc6 a03d 5c81 08be
000000e0: 97ef 123e e3d4 30bd 067a 16bb ed53 cfbd
000000f0: 72d7 b7be e3de a03e 3daf 483d 3e82 9ebd
00000100: f8a7 e83d cd33 8dbd 0d55 c33d efa9 ebbd
00000110: a984 e83d 9a59 cf3d 446f 53bd 3dc1 6f3e
00000120: da0c 67be b016 b63d 3e68 cd3d 72be 633d
00000130: 1df0 44be 8dec df3d ac3c 7abb 1f0c 9fbe
00000140: 649b 6a3d 90a1 06be fe2d cabd 0a70 543d
00000150: daac 30be 0996 ccb7 063e 38bd 6031 aebc
00000160: 7556 4fbe 389e 7b3d d62f 2d3e 264c f93d
00000170: 8e98 24bd a743 b53d e2a5 8b3a b83c ec3d
00000180: 73d1 693d 41af 80be 8ddf ebbd c609 da3d
00000190: d2e9 5abd 4911 b5bc e9df afbd 537e c5bd
000001a0: a475 4ebe ca97 01be 647a cb3d d6e0 13be
000001b0: 5dd6 a43d e6b7 0abe 8487 253e 1184 ed3d
000001c0: 1271 3a3d f2a2 453e a050 8d3d 87d6 533e
000001d0: ae36 66be 02bc 05be a5e1 84bd e129 2dbe
000001e0: a03a 183e 4097 d8bb 125c 3cbe c3be 553e
000001f0: 551a 2a3e 4f8c 883d 6687 5c3e b65f c03d
00000200: 9199 4dbe 0f33 9c3e 637f e3be 2b8c 0c3c
00000210: aebf 033e b168 313c 10f1 36be 8a3c 9dbd
00000220: 4ba8 bc3d 6e65 b13e 709b ec3e 9614 273d
00000230: bed4 acbd a13f e53d 8efe 773e 805f 91be
00000240: 3ec9 81bd 0833 4c3e ebd7 6e3d 4021 d53d
00000250: 0df4 1cbe 1699 153e b1cc d4bd 30f6 3a3e
00000260: fb1e b9bd 9a66 393e 3eeb 083e 3deb 6c3d
00000270: f182 70bd 87c1 dabe b60b 6abe acd9 febd
00000280: a5d5 a63b 7cc8 babe 6ecf 5b3d 2c47 ef3d
00000290: 8413 9abe e8b2 67bd 0a4c 2b3e e534 b4bd
000002a0: 5497 acbd 5f49 4dbe 8c3b 8e3d ac68 cd3e
000002b0: 6331 09be ef5f 36be 7621 3e3e 98e4 ca3c
000002c0: 49a6 36be 256a 083d 8940 913e 4d2d 7dbd
000002d0: 8c72 a2bd 3dec 5b3d 7100 da3e 5ca8 ac3e
000002e0: b6ae c53c 95e0 5f3d 252e 33be e99d b63c
000002f0: d6c9 c3bc 19c0 4e3e 2167 38bd 2e94 f7bc
00000300: bad9 2fbe 0ec2 8a3d b8c4 0bbd 288a 393e
00000310: c6ac 5f3c 52f1 883e 357b 323e 0650 353e
00000320: 47fe 5bbd fd01 bb3d 5fd7 e93c 0911 6d3b
00000330: e6c3 e0be 296f ac3c 5029 4b3e c43f 90bc
00000340: 6d94 6f3d 0e6d 86be d434 f93d d002 88be
00000350: f013 863d 442a b53e 46a2 e33c f9a2 7d3e
00000360: dcd9 663e 1d58 663d 30df 0d3e b7f0 9f3e
00000370: 8d9e 693e 8dbb 973d 5238 963d 3c3a 843c
00000380: 35bb 3c3e c76e efbd b03f 26be f117 e93e
00000390: b75c 8e3d 0aa9 56bc a7b0 bdbd bfa6 acbc
000003a0: 372b eebd f7eb 94be f40b 14be db2b 02bd
000003b0: 7b7e 02be bc6e 7bbe cdb5 58be d06c 853d
000003c0: 885e 03bd accc 1e3d d516 51bd 4574 33be
000003d0: 755e 8dbd 713e 28be 26fa 883d 5ed1 34be
000003e0: 4282 983d ccb3 5cbe a404 5f3e f777 d13c
000003f0: a03c 903e 51b1 53bd 071a 263e 3088 1bbe
0.098630436 0.10032785 -0.0493096 0.11000431 0.1329649 0.030066969 -0.25808787 -0.12578669
-0.062931344 0.03758083 -0.03896452 0.11951351 0.19010237 -0.030477364 0.13197598 0.10772316
-0.06462762 0.12323824 0.1170361 0.15910414 0.12611392 -0.02819095 -0.14990583 -0.12159765
-0.10612174 0.15634061 0.22473545 -0.13671969 -0.29572794 0.13063669 -0.020322308 -0.13760228
-0.09185509 0.0637079 0.0039166235 0.16235502 -0.02098404 0.017619638 0.12456278 -0.04988501
-0.053560928 0.12065826 -0.03391391 0.16889612 -0.025621468 -0.06748182 0.09002473 -0.19481012
-0.17743175 0.12675402 0.080785304 -0.112683095 -0.19043495 0.19558737 0.078504294 -0.13330597
0.14349209 -0.043171775 -0.0022960915 -0.101234294 -0.3590656 0.3142005 0.048995245 -0.077396855
0.113601625 -0.06894646 0.095377065 -0.11507022 0.11353428 0.10124512 -0.051619783 0.23413558
-0.22563496 0.08891046 0.10029648 0.055601545 -0.19232221 0.1093379 -0.0038183136 -0.31063935
0.0572771 -0.13147569 -0.098720536 0.05186466 -0.17253438 -2.438856e-05 -0.044981025 -0.021263778
-0.20247824 0.061430186 0.16912779 0.12172727 -0.04018455 0.08850794 0.0010654295 0.11535019
0.057084512 -0.25133708 -0.11517248 0.106463954 -0.053445645 -0.022102969 -0.08587629 -0.09643235
-0.20162064 -0.12655559 0.099354535 -0.14441237 0.08048699 -0.13546714 0.16164976 0.11597455
0.04551799 0.1930044 0.069001436 0.20687304 -0.22481796 -0.1306 -0.06488351 -0.16910507
0.14866114 -0.0066098273 -0.18394497 0.20873551 0.16611607 0.06667387 0.21536025 0.093932554
-0.20078112 0.30507705 -0.44433126 0.0085783405 0.12866089 0.010828183 -0.17865396 -0.076775625
0.09211787 0.34647697 0.4621234 0.040791117 -0.08439015 0.11193777 0.24218199 -0.28393173
-0.06337212 0.19941342 0.058311384 0.104067326 -0.15327473 0.14609179 -0.10390604 0.18257976
-0.09039112 0.18105546 0.13370988 0.05784153 -0.058718625 -0.42725775 -0.2285603 -0.12443861
0.0050913864 -0.36481082 0.053664617 0.11683497 -0.30093014 -0.056567103 0.16728225 -0.08799151
-0.08427301 -0.2004752 0.069449514 0.4011892 -0.13397746 -0.17810033 0.18567452 0.024767205
-0.1783687 0.033304352 0.2836955 -0.06181078 -0.07932004 0.05369209 0.42578462 0.33722198
0.02413116 0.054657537 -0.17498071 0.022292094 -0.023899954 0.20190467 -0.045020226 -0.030222025
-0.171729 0.06775294 -0.034123152 0.18119109 0.013652032 0.26746613 0.17429812 0.17706308
-0.053709295 0.091312386 0.02854508 0.0036173484 -0.4389946 0.021049099 0.19839978 -0.01760853
0.05849116 -0.26255077 0.12168279 -0.26564646 0.065467715 0.3538381 0.027787339 0.247692
0.22544044 0.056236375 0.1385467 0.31238338 0.22814389 0.07408819 0.07334961 0.01614105
0.18430789 -0.11691051 -0.16235232 0.45526078 0.06951278 -0.0131018255 -0.092622094 -0.021075604
-0.11629336 -0.29086277 -0.14457685 -0.031780105 -0.12743561 -0.2455396 -0.21163101 0.06514895
-0.032072574 0.03876941 -0.051047165 -0.17524822 -0.06902782 -0.1643007 0.06688337 -0.17657992
0.0744672 -0.21552962 0.21779114 0.025569899 0.28171253 -0.051682774 0.16220866 -0.1518867

model._layers.2.weight f4 [128, 128]
00000000: a718 813d 518b 483f 3d83 ed3d 514d 8dbe
00000010: cf09 a4bd 2b03 9bbd 91df 1bbe 3b52 ea3d
00000020: 22e7 65be 2309 e43c e868 3e3e 7847 7ebd
00000030: 8457 fe3d 6beb fabe 142c eebd 9028 1c3d
00000040: 438b 9abe 6001 b4bd cd50 07bd 65a0 e0bd
00000050: 2b71 b0bd 8014 0bbe 8fd9 26be ed1b d13c
00000060: 398d b7bd 499a 6dbe ceea 473b 1a52 37bd
00000070: b24f 663e dd7f 02bd 0168 f7bd 4a25 883b
00000080: 19c0 42be 50b2 5b3e e177 343e 2ade c53e
00000090: 4fcc adbc b4a7 73bd 985f 993d b1f0 ec3d
000000a0: 16b1 793d 0293 a2bd fdd2 9fbd b4c0 09bf
000000b0: de69 62be 23cd 17bd 3a2e 6fbb 8b03 01be
000000c0: 27ef f4bd cc33 d9bd 40e1 0b3d 4aa7 cd3b
000000d0: 7190 f33d 155c 2d3e e965 223e 4740 f43d
000000e0: fbf0 b0bd 4781 87be 22ec 7b3e 9570 9ebc
000000f0: 8738 45be bb82 9a3e 0534 553e f51e c33c
00000100: b9c4 c13d 157c 143d 4fdd b83d daac 1fbe
00000110: 1247 283d 9482 9cbe 1d09 0dbd 05f9 643d
00000120: c180 b43e ea63 703d 0bab 1dbf 91cb 3cbe
00000130: 7d4c 28bd a652 9fbe c2d7 31be ac78 2bbe
00000140: ffd7 cd3d e663 1a3e 45e1 8d3d 4275 a23e
00000150: 4f2f 973e 3cf7 ad3d 42de 36be 37f7 173e
00000160: 4f7a a8be 80f9 80bc 469f 9dbc 1ecd dfbe
00000170: 215a 80bd 91e0 56be 610b 60ba 7605 bebd
00000180: 797b 763d 1b42 793e a86b 47be 5d97 56be
00000190: 6a17 9abb 6a4b 76be c18a 4ebe b67a 89be
000001a0: 7e86 dd3d 9579 7bbd 118e 023e 1a04 463e
000001b0: 1860 41bd c17e 5b3c 3b38 503e 0759 d63e
000001c0: 0875 2bbe 06ee 913d c054 5a3e b3cf 2a3e
000001d0: 4484 713e b1e5 8d3e 16a3 2abe 0978 883d
000001e0: 64f2 573d 5a10 dc3e 0a29 8e3d dd9b 9b3d
000001f0: 07a6 923d b087 153e 2d8e c33d 0080 023d
00000200: d3e7 68bd e18d 21bf 95ec a0bd 2840 323e
00000210: 8612 373d d0bb c4bc 2b11 4dbe 3c77 39bd
00000220: ecb9 e1bb 6ea0 2cbe d4bb 9f3d 8cd4 963e
00000230: c3f2 86be b2d7 f83e c70b dcbe e32b eb3c
00000240: 6f98 fdbd 566c c83c 34da 71be 4a59 c23e
00000250: 6f03 cd3d ea2e 5dbd d823 6ebe 9b37 b63e
00000260: ba42 343e d4dc 06be 2750 95bc f88c 043d
00000270: 2bb4 a23e 5109 43be 2988 0fbe 4294 ea3d
00000280: 1997 fc3d 1d7a 0bbf aaac 2abe fd39 963d
00000290: 2d02 c4bc d08f 583e ec87 973d 7675 5abe
000002a0: df42 4bbd 9fd4 363d 8f0e ca3d c490 243d
000002b0: 900e 303e 0258 453e db6e 8eba 3813 0b3e
000002c0: e36d a13e 2937 ba3b 22e4 7b3d 970d ae3c
000002d0: d7b4 7a3d 6f53 9fbd e65d fc3d 877e 1bbe
000002e0: 9898 ae3d a4b3 8fbc 36da 9abd 686f bb3d
000002f0: f579 1f3e ed54 f1bc 4f5a b3be de90 6ebe
00000300: d029 91be 6773 32bd 5576 9c3d f22e fd3d
00000310: 3591 0bbe 896c 4d3e 4c8a e43d e9a5 8d3d
00000320: d8a4 8bbd 2598 333d 1dad ea3e 94e7 2e3e
00000330: 8b62 c03e 176f 71ba 16d9 a3be 872b 853d
00000340: 32aa 1dbe 5e13 cfbd 9d0c b8bd 061e d73e
00000350: cbf6 833d 3873 373e c303 19be 4a2c 793c
00000360: 79bb 273e 5018 813d 171f a83c 040e 12be
00000370: fb26 e8bd b393 2d3e 2971 d93c bcd2 143e
00000380: 27fc 803c 3ef0 4a3e 3ba5 e33d fc0a ec3e
00000390: d5b1 953d 0675 173e 66c8 7f3e 52c1 643d
000003a0: be08 9fbb eabb 0cbf e776 8b3d 926e 793c
000003b0: 8836 003e 84a0 1c3c 2b0d 62bd 6b84 cebd
000003c0: 8074 00be 6650 18be 6e02 6cbe dce2 983d
000003d0: 3591 c73d 08de b2be 837e 833a 700d 25bf
000003e0: 06e3 a1be 07ca 4dbe f5c1 183e 9a5a 033e
000003f0: a60a f6bd 1390 49bd dce2 923d 1074 8f3d
0.0630353 0.7833758 0.11597297 -0.2759805 -0.08009683 -0.075689636 -0.15222003 0.114414655
-0.22451451 0.027836388 0.18594706 -0.062079877 0.12419036 -0.49007735 -0.11629501 0.03812462
-0.30184373 -0.08789325 -0.033036042 -0.10968093 -0.08615335 -0.13582039 -0.1629393 0.025526011
-0.08962483 -0.23203386 0.0030504945 -0.044756033 0.22491339 -0.03186022 -0.12080384 0.004154836
-0.19018592 0.2145474 0.17623855 0.3864606 -0.021215586 -0.059486106 0.07488936 0.11569346
0.060959898 -0.07938196 -0.07803915 -0.53809667 -0.22110698 -0.037060868 -0.003649606 -0.12599008
-0.11959677 -0.106055826 0.034150362 0.006276046 0.118927844 0.16929658 0.15859188 0.119263224
-0.086397134 -0.26465818 0.24601796 -0.019340793 -0.19259845 0.30177864 0.20820625 0.023818472
0.0946135 0.036251146 0.09026586 -0.15593281 0.041083403 -0.30568373 -0.03443252 0.055901546
0.3525448 0.058689035 -0.61589116 -0.1843703 -0.04108857 -0.31117743 -0.17367461 -0.16745251
0.100509636 0.1507717 0.069277324 0.31730086 0.2952828 0.08494422 -0.17858222 0.14840399
-0.32905814 -0.01574397 -0.019240987 -0.4371118 -0.06267191 -0.20984103 -0.00085466175 -0.09278385
0.060176346 0.24341623 -0.19474661 -0.20956178 -0.004702498 -0.24052206 -0.20170118 -0.26851434
0.10816668 -0.061395247 0.12749507 0.19337502 -0.047210783 0.01339692 0.2033395 0.41864797
-0.16743863 0.071254775 0.21321392 0.16680793 0.23585612 0.27714303 -0.16663775 0.0666352
0.052721396 0.42981225 0.06941421 0.07598088 0.071605735 0.14602542 0.09548602 0.03186035
-0.05686171 -0.63107115 -0.078576244 0.17407286 0.0446954 -0.024015337 -0.2002608 -0.045279726
-0.0068886187 -0.16858074 0.07799497 0.29459035 -0.26357087 0.48602062 -0.42977735 0.02870745
-0.1238259 0.024465721 -0.23618394 0.37958747 0.100104205 -0.05399982 -0.23255861 0.355893
0.17603579 -0.13170177 -0.018226696 0.032361 0.31778082 -0.19046523 -0.14016785 0.11454059
0.12333507 -0.54483205 -0.16667429 0.07335279 -0.023926819 0.2114861 0.07398972 -0.2133387
-0.04962432 0.044636365 0.09866058 0.04017712 0.17193055 0.19271854 -0.0010866778 0.1358155
0.3152915 0.005682845 0.06149686 0.021246715 0.06120762 -0.077795856 0.12322597 -0.15184985
0.08525199 -0.017541714 -0.07561152 0.091521084 0.15573867 -0.029459441 -0.35029837 -0.2329745
-0.28352213 -0.043567088 0.076397575 0.1236247 -0.13629611 0.20060934 0.111591905 0.069164105
-0.06818551 0.04384627 0.458352 0.17080528 0.37575182 -0.0009209974 -0.3200156 0.06502443
-0.15396956 -0.10111116 -0.08986781 0.42015094 0.064435564 0.17915046 -0.14942841 0.015208313
0.16380109 0.06303465 0.020522637 -0.14263159 -0.1133556 0.16950874 0.026543217 0.14533514
0.015745236 0.19818208 0.111154996 0.4610213 0.073093094 0.14790735 0.2497879 0.055848427
-0.004853337 -0.54974234 0.06809788 0.015224116 0.12520802 0.009559754 -0.05518834 -0.100838505
-0.12544441 -0.1487442 -0.23047802 0.07465145 0.09744493 -0.3493502 0.001003221 -0.6447363
-0.31618518 -0.20096599 0.14917739 0.1282753 -0.1201375 -0.049209666 0.07172176 0.07004559

exp_avg f4 [128, 14]
00000000: df79 02bc 9de8 ad39 efae 48bd 3306 b83a
00000010: 2c3a bcb6 574c 3d37 22b0 06b5 7aee b638
00000020: 6be6 d439 899b 1338 21af 6639 34af f138
00000030: 910a 053a 2279 6eb6 bbef 973c 3dc8 13ba
00000040: fdca 493c 9d03 193a 1ff6 4637 dcdf aeb6
00000050: 0239 8638 6799 653a 3f39 9c3a 79cb 4b38
00000060: 23d8 9a39 3580 7039 39e0 0b3a f87a dfb9
00000070: bc66 4abc ea49 8bb9 9b37 5ebd 93b4 17b9
00000080: 93df 6136 f28b dfb6 d6dd f036 72a1 8cb9
00000090: 3a6c bfb9 f136 f4b5 21f2 0c38 6a79 57b8
000000a0: 02fc 13b9 bbeb 54b9 24bf 94bb fcae 9a36
000000b0: 1cf5 edba 1eb2 48b9 a3ec b3b5 f826 08b6
000000c0: 2e9b 80b7 3fed 1ab9 fb9e 7cb9 d974 80b7
000000d0: 64b2 57b8 c843 58b8 4360 24b9 8581 3f38
000000e0: 4daf 323c 50ca c6b8 70a4 983d ef00 1438
000000f0: 0a50 6036 be82 96b4 cc7a c438 b6c0 f939
00000100: e259 c3b9 12a9 c537 58c7 cfb9 87e4 9c35
00000110: a857 b0b9 4471 78b9 3f9a 0039 9659 83b8
00000120: e5b7 e5bc 021c 91b9 7c1d bbb3 3bcb 3fb6
00000130: 7d60 89b7 fc69 17b9 8528 57b9 c522 36b7
00000140: 14b5 1fb8 9077 34b8 b2b1 48b9 717f f8b4
00000150: da17 3dbb 1b79 31b8 c527 dcbc b340 8d38
00000160: 8d9a 6136 db6c 1635 ec91 a337 2658 ed38
00000170: 305f 1b39 0a9c 7037 4dda fd37 f202 2e38
00000180: f6b3 2739 5f5c 5ab9 dace 26bc 367c 8837
00000190: bc43 d5bc 8cd1 1eb9 1d8a fe36 2370 f535
000001a0: 6bda f8b5 acd5 f0b8 0bc9 34b9 3899 19b7
000001b0: 141c b7b7 405e 20b8 7c56 8cb8 63ca 4739
000001c0: 8721 233c 8cec b4b8 384a b83d 54ec 8839
000001d0: 4b16 3cb6 9f29 8ab6 a428 3038 1090 2d38
000001e0: 8dca 2b38 b956 1836 19dd b138 ebfc 8337
000001f0: 5d4c 5c39 6f5d 97b8 831c 96bb df84 d7b8
00000200: 36e6 823c 5690 8638 9b27 0536 e428 a7b6
00000210: c439 b9b7 9668 adb8 56fc 59b9 5670 9b35
00000220: cd35 37b8 b2bf b7b7 840d 61b9 e5a4 08b9
00000230: 5191 b83b 6c21 1738 4e99 4c3c d5b8 dab9
00000240: b774 9333 9abc adb6 2f75 c6b7 540f 88b9
00000250: 2d9f 80b9 e6c5 83b7 2fd1 89b8 9a0f 6eb8
00000260: 1157 5cb9 662c 1c36 d7e5 133e bb7a d4b9
00000270: b1cb a13e 7b7b b13a 6864 6cb7 5526 a5b6
00000280: e5fc 0fb9 5c04 8a3a eaed 5739 9d49 5939
00000290: cf1d 6139 3318 c339 bedd 913a d7af 033b
000002a0: e3ce 34bb 604a 52b9 04a1 fa3c b2c8 98b8
000002b0: be94 8eb3 273e 1fb6 c752 50b8 d0a1 35b9
000002c0: 1a60 95b8 6d2b 0bb7 fb10 97b6 94c6 deb7
000002d0: 8d63 36b9 74db 6739 50ec 873c 232c 13b9
000002e0: d0b7 ca3c f155 e5b9 32f6 5db5 9934 deb6
000002f0: 183b 04b8 e113 0ab9 e03b feb8 50ce cb35
00000300: b93a cab7 7200 63b7 4a59 0bb9 b73d 7639
00000310: 6abc 9abb e5ac f539 a4ab b5bb 9e6d 33b8
00000320: 6a97 93b6 d048 0836 5453 74b5 4c32 f1b8
00000330: 84b9 69b9 b0d4 79b7 366f 5ab8 54d6 28b8
00000340: 345e 39b8 0774 1939 e0e3 773b bc94 77b8
00000350: e355 80bc e9f4 13b9 df3f b3b5 4705 57b6
00000360: 7c5d d3b7 caf3 ceb8 ae89 30b9 49ef 54b6
00000370: 8cf1 8cb8 29d7 dab7 ba30 13b9 1345 d1b8
00000380: bbd1 03bc 6741 b3b8 a79c 32be cd7d 15ba
00000390: f2cc 48b6 d388 c7b5 f093 adb8 b684 e5b9
000003a0: fea4 24b9 5d4e 5db6 d4b8 ed37 fe4d 2db8
000003b0: d2fc 5fb9 218f 93b9 a1e9 be3c b0eb b6b8
000003c0: 4d62 e43d b2ea f83a 0cb4 2536 5811 fe36
000003d0: a712 f737 f62b 263a 8efc a73a d01e 1438
000003e0: 5108 ab39 6f52 7439 ad3d 583a 72bb 22b6
000003f0: 8be7 273c ba4a a538 8cd9 c83a 0ef8 17b8
-0.007963627 0.00033170442 -0.048994955 0.0014039933 -5.6096087e-06 1.1283052e-05 -5.0175197e-07 8.722856e-05
0.00040607466 3.5192385e-05 0.0002199975 0.0001152441 0.0005075122 -3.5535272e-06 0.01854693 -0.0005637443
0.012316463 0.0005837025 1.1859024e-05 -5.2116648e-06 6.4002365e-05 0.00087585155 0.0011918916 4.858847e-05
0.00029534203 0.00022935944 0.0005335841 -0.00042625493 -0.012353595 -0.00026567216 -0.05425225 -0.00014467751
3.365775e-06 -6.6622097e-06 7.1783825e-06 -0.00026823167 -0.00036510994 -1.8195407e-06 3.36041e-05 -5.137307e-05
-0.00014112893 -0.00020305712 -0.0045393873 4.6099285e-06 -0.0018154713 -0.0001913984 -1.340541e-06 -2.0288262e-06
-1.533105e-05 -0.00014774966 -0.00024091818 -1.53132e-05 -5.1426134e-05 -5.156154e-05 -0.00015676119 4.5658573e-05
0.010906053 -9.4790594e-05 0.07453239 3.528682e-05 3.342519e-06 -2.8034805e-07 9.368881e-05 0.00047636562
-0.00037260266 2.356296e-05 -0.0003963064 1.1689416e-06 -0.00033634645 -0.00023693318 0.00012264492 -6.2632535e-05
-0.02804179 -0.00027677423 -8.713229e-08 -2.8579514e-06 -1.6376604e-05 -0.00014439964 -0.00020519093 -1.0856141e-05
-3.8077196e-05 -4.3026695e-05 -0.00019139683 -4.6286326e-07 -0.0028853328 -4.2312877e-05 -0.026874432 6.735455e-05
3.3617573e-06 5.603776e-07 1.9499064e-05 0.000113174596 0.00014817412 1.4341445e-05 3.0261604e-05 4.1487576e-05
0.00015993402 -0.00020824511 -0.010181153 1.6270304e-05 -0.026033275 -0.00015146116 7.5858684e-06 1.8286559e-06
-1.8541008e-06 -0.00011483891 -0.00017241032 -9.155185e-06 -2.1828375e-05 -3.823475e-05 -6.691829e-05 0.00019053514
0.009956724 -8.627129e-05 0.08998531 0.0002611602 -2.802716e-06 -4.117566e-06 4.199952e-05 4.1380583e-05
4.0958217e-05 2.2700244e-06 8.4812e-05 1.5734191e-05 0.00021009283 -7.2176445e-05 -0.0045810356 -0.00010276748
0.015978914 6.4165026e-05 1.9841598e-06 -4.981748e-06 -2.2080618e-05 -8.2687635e-05 -0.00020788735 1.1581094e-06
-4.3680706e-05 -2.1904565e-05 -0.00021462707 -0.00013031399 0.0056325574 3.6032332e-05 0.012487723 -0.0004171791
6.866451e-08 -5.177758e-06 -2.3658007e-05 -0.00025951362 -0.00024532658 -1.570857e-05 -6.5716325e-05 -5.6758152e-05
-0.0002101327 2.3271655e-06 0.14443146 -0.00040527232 0.31600717 0.0013540828 -1.4090074e-05 -4.9218456e-06
-0.00013731753 0.0010529864 0.00020592628 0.00020722156 0.00021468777 0.00037211328 0.0011128706 0.0020093822
-0.0027589134 -0.00020054867 0.030594356 -7.285307e-05 -6.639446e-08 -2.3729024e-06 -4.9668157e-05 -0.00017321785
-7.122774e-05 -8.2951565e-06 -4.5021275e-06 -2.6556932e-05 -0.00017393958 0.0002211163 0.016592175 -0.00014035455
0.024745852 -0.00043742315 -8.2687177e-07 -6.6222387e-06 -3.1526288e-05 -0.00013168111 -0.000121228164 1.5184723e-06
-2.4107621e-05 -1.3530358e-05 -0.00013289336 0.00023483379 -0.0047221677 0.00046858858 -0.005544143 -4.2779015e-05
-4.3985683e-06 2.0307962e-06 -9.101834e-07 -0.00011501144 -0.00022289722 -1.4891077e-05 -5.2078824e-05 -4.025393e-05
-4.419517e-05 0.0001463444 0.0037825033 -5.902791e-05 -0.015665954 -0.00014110249 -1.3355128e-06 -3.2040568e-06
-2.5196692e-05 -9.868255e-05 -0.00016835958 -3.1729744e-06 -6.720712e-05 -2.6087817e-05 -0.00014037165 -9.978763e-05
-0.008045609 -8.547567e-05 -0.1744257 -0.00057026447 -2.9921616e-06 -1.4866476e-06 -8.276838e-05 -0.0004377716
-0.00015701723 -3.297718e-06 2.8338669e-05 -4.131905e-05 -0.0002136112 -0.00028144664 0.023304762 -8.7223365e-05
0.11151562 0.0018990843 2.4691717e-06 7.571809e-06 2.945338e-05 0.0006338948 0.0012816356 3.5314646e-05
0.00032621858 0.00023300362 0.00082489365 -2.4248989e-06 0.010248075 7.881732e-05 0.0015323623 -3.6232224e-05

exp_avg_sq f4 [128, 14]
00000000: e96b 243c d63e 6436 39a1 e03d 4693 0937
00000010: 216b c82f 76f2 882f 9e0a 9232 ff92 f135
00000020: 3c25 5436 0058 7d32 850c 8835 7f5d 2e34
00000030: b284 7936 a8d8 8136 aecb fc3b 8344 2e37
00000040: 7940 483e b59d e436 c685 9d30 fb23 2330
00000050: d2d4 ca32 31bc 9c36 f88d a136 3df7 f032
00000060: c508 2035 2411 aa34 d8ac 7736 0a69 0937
00000070: f520 9e3b 75aa 7336 f74d b03d d764 b036
00000080: 69c6 bf2f 3bfc a42f 7607 7d32 88a4 9336
00000090: 45c8 8a36 b196 cc32 56be 0735 a4d3 9434
000000a0: 63ea 5336 1e1d 5b36 7984 db38 143e 4b34
000000b0: ef32 b13b fd04 e734 942e c72d d629 962d
000000c0: 122a 9d30 d365 1834 79aa 2c34 6ef6 6030
000000d0: 7825 0533 bc42 2b32 3571 2134 6c52 2534
000000e0: 089f 853b 15c6 cc36 3a65 d43e e200 9737
000000f0: 1f04 e82f 5949 bc2f c67b 1c33 8839 5636
00000100: cea8 6a36 720b 9c32 5836 d235 1fae 5334
00000110: a659 1c37 bcc7 3236 eb2e 9339 4146 4134
00000120: 9e7d 323c 99e8 fe34 1690 e52d 8254 b72d
00000130: 6af0 de30 9a57 6834 56df 2934 e765 7430
00000140: 9dfd 8b32 026a 4432 367e 1f34 ca5c 1134
00000150: fde9 de39 1487 b535 65e9 a03c 5625 9435
00000160: a68d f02e 72b3 bb2e a381 8831 946e 0835
00000170: c74f 0935 96ea 3831 c4ed 9c33 9123 0e33
00000180: 3203 0635 e7a5 e434 c72f da39 a9cb 4635
00000190: 6221 9f3c eccd 8b35 62dc d02e 4a21 892e
000001a0: 7a87 4231 a6fc df34 2729 d634 ef4b 0f31
000001b0: 2817 7333 c837 e032 f4e1 ae34 46ea e234
000001c0: 2552 033b 8312 4c36 59f0 763e e33f a035
000001d0: 7b73 212f e19c dc2e f179 db31 7ba8 1d35
000001e0: 1f48 0335 f875 2e31 90c3 0b34 1b13 0133
000001f0: 3040 1135 8202 7735 95f8 b03a d855 b735
00000200: 5242 2a3d 5dc0 c535 b6d4 1b2f 9c75 a92e
00000210: 4459 b131 2863 8b35 7de6 5d35 7ad2 ba31
00000220: 3522 9c33 21df 8233 5f24 0e35 df47 9335
00000230: 8a11 463b d294 d535 1d6b 8b3d f0bd 3635
00000240: 3aeb 142f c550 af2e 01da 0d31 64f8 e534
00000250: c3dc f634 0bf4 3131 ea78 8333 eb18 fb32
00000260: e34d d034 179b 3a35 ac21 5b3e 563d d338
00000270: d1a7 8e41 6f64 3039 8bfd c031 d745 9430
00000280: e81a 7335 ebae 3e38 140a 9837 7c06 0734
00000290: d84d 8b35 d2cc d335 73d5 5b38 7043 9a38
000002a0: 4a0b 3339 cec0 4135 79db 393c b02b 2a35
000002b0: 9c42 0c2e 6708 a32d 85e8 eb31 b5df 5934
000002c0: b5d7 1834 b70e 2a30 6696 ae32 fd63 1f32
000002d0: 74e3 6434 dafd 4a34 4c7d 0e3b 1af2 4536
000002e0: c184 f53d cdd5 db35 bbaa 832f c8cb 002f
000002f0: 929c fd31 fbf7 7435 0605 7835 2832 b531
00000300: 535c fd33 e4aa 8133 0710 3935 89c5 8e35
00000310: f617 883a b2a3 8a35 130a 233c c99a 7d35
00000320: 033f 9d2e 4553 822e 3d6b 4931 6247 d334
00000330: 4af7 e734 cff4 2331 f3de a633 2c90 e832
00000340: ddc7 f434 ee61 2a35 59ab 313a b5dd 3c35
00000350: 09ba 523c ee83 0535 c6b3 c02e 4d39 332e
00000360: 4af9 1631 7a45 c034 4665 e534 2c45 2531
00000370: e61e 2f33 5bb5 e832 a26e 8334 8a65 3035
00000380: 412a 373b 96b6 a535 1a94 8b3e 3d2a 5736
00000390: ef5d e72e b7f3 4b2e 8ad4 8832 a99a 8135
000003a0: d81d 0e35 9f7e 4131 7193 3b33 8db1 2f33
000003b0: 0b3e 8035 94ed 9f35 150a b43c d56f 1237
000003c0: 132e ee3e ed16 9837 679f 6d30 2925 1130
000003d0: 2eb9 3933 2b2c cf36 ab6e fe36 50f3 3433
000003e0: 5fad d235 d818 f934 4c73 ce36 1be0 0637
000003f0: df19 f33b 1d4c 9036 0fdd 003d 931e 6336
0.010035493 3.4011223e-06 0.10968251 8.200126e-06 3.6455908e-10 2.4910535e-10 1.7001465e-08 1.7998681e-06
3.1612135e-06 1.4746547e-08 1.0136433e-06 1.6239026e-07 3.718113e-06 3.8697217e-06 0.00771471 1.038716e-05
0.19555844 6.813289e-06 1.1461274e-09 5.9350186e-10 2.3612674e-08 4.6710707e-06 4.8147012e-06 2.8052108e-08
5.9617406e-07 3.167744e-07 3.6906476e-06 8.190293e-06 0.004825706 3.630904e-06 0.086086206 5.256948e-06
3.4883677e-10 3.0010647e-10 1.4728235e-08 4.4000953e-06 4.136035e-06 2.3817252e-08 5.0568394e-07 2.7721137e-07
3.1577881e-06 3.2650491e-06 0.00010467409 1.8928432e-07 0.005407683 4.3030732e-07 2.2644366e-11 1.7071605e-11
1.1435211e-09 1.4193147e-07 1.6080766e-07 8.1840923e-10 3.1000553e-08 9.968684e-09 1.5035478e-07 1.5396807e-07
0.004077796 6.1027336e-06 0.4148348 1.8001014e-05 4.2203482e-10 3.4249117e-10 3.643415e-08 3.1921973e-06
3.4966974e-06 1.8165995e-08 1.5662035e-06 1.9714251e-07 9.3191975e-06 2.6640328e-06 0.00028072982 1.8000084e-07
0.010894207 4.7480424e-07 2.6098273e-11 2.084222e-11 1.6220956e-09 2.1638553e-07 1.58206e-07 8.8911495e-10
1.629706e-08 1.1432805e-08 1.4853944e-07 1.3537934e-07 0.00042517475 1.3524864e-06 0.019642541 1.1037725e-06
1.0939098e-10 8.5356514e-11 3.972859e-09 5.082486e-07 5.115257e-07 2.690887e-09 7.3075654e-08 3.30943e-08
4.992354e-07 4.258902e-07 0.00041615797 7.405711e-07 0.019425098 1.0416238e-06 9.497893e-11 6.235952e-11
2.8307725e-09 4.1720813e-07 3.9890548e-07 2.0852402e-09 5.6598907e-08 2.6102398e-08 3.2574428e-07 4.2266237e-07
0.0020037976 3.0409144e-06 0.24115123 1.1939522e-06 1.4683892e-10 1.0032309e-10 6.387602e-09 5.873223e-07
4.8906253e-07 2.538739e-09 1.3016529e-07 3.005253e-08 5.4110114e-07 9.201832e-07 0.0013501818 1.3659546e-06
0.041567154 1.4733629e-06 1.4172738e-10 7.706122e-11 5.1615263e-09 1.0385165e-06 8.266432e-07 5.437241e-09
7.270538e-08 6.094184e-08 5.295205e-07 1.0973271e-06 0.0030222856 1.5913049e-06 0.068075396 6.807668e-07
1.3544091e-10 7.972426e-11 2.0642121e-09 4.2835302e-07 4.5981696e-07 2.5895612e-09 6.122157e-08 2.9231577e-08
3.879969e-07 6.9516085e-07 0.21399564 0.00010072689 17.831942 0.00016822082 5.61676e-09 1.0788267e-09
9.056371e-07 4.5462435e-05 1.8124505e-05 1.2575214e-07 1.0378963e-06 1.5780336e-06 5.241246e-05 7.3558534e-05
0.00017074976 7.217867e-07 0.01134383 6.339351e-07 3.1891476e-11 1.8534686e-11 6.8658346e-09 2.0291084e-07
1.4234577e-07 6.186655e-10 2.032466e-08 9.277753e-09 2.1316902e-07 1.8905067e-07 0.0021742163 2.949621e-06
0.119882114 1.6378996e-06 2.3950072e-10 1.171393e-10 7.381069e-09 9.125794e-07 9.239451e-07 5.2734954e-09
1.1798024e-07 6.0381154e-08 6.8941193e-07 1.0637315e-06 0.0010383117 1.0329443e-06 0.009951132 9.4475087e-07
7.1507265e-11 5.926507e-11 2.9310308e-09 3.935375e-07 4.320703e-07 2.385878e-09 7.7705316e-08 2.7073916e-08
4.559396e-07 6.347244e-07 0.0006777547 7.0358084e-07 0.012861737 4.9738344e-07 8.763083e-11 4.075078e-11
2.1969577e-09 3.5813338e-07 4.272826e-07 2.404998e-09 4.0773465e-08 2.7090826e-08 2.4481147e-07 6.571287e-07
0.002794877 1.2346597e-06 0.2726143 3.2062082e-06 1.052135e-10 4.637332e-11 1.5929135e-08 9.656261e-07
5.294255e-07 2.8157172e-09 4.3673428e-08 4.0906844e-08 9.5548e-07 1.1915567e-06 0.021977464 8.728316e-06
0.46519527 1.8130488e-05 8.644662e-10 5.28035e-10 4.324209e-08 6.1742226e-06 7.5826733e-06 4.2130807e-08
1.5696677e-06 4.639794e-07 6.1527007e-06 8.039201e-06 0.0074188556 4.300395e-06 0.031460818 3.3843432e-06
